{"format": "layers-model", "generatedBy": "Antigravity-Manual-Converter-v2", "convertedBy": null, "modelTopology": {"model_config": {"class_name": "Functional", "config": {"name": "functional_1", "trainable": true, "layers": [{"class_name": "InputLayer", "config": {"batch_shape": [null, 224, 224, 3], "dtype": "float32", "sparse": false, "ragged": false, "name": "input_layer_1"}, "name": "input_layer_1", "inbound_nodes": []}, {"class_name": "Conv2D", "config": {"name": "Conv1", "trainable": false, "dtype": {"class_name": "DTypePolicy", "config": {"name": "float32"}}, "filters": 32, "kernel_size": [3, 3], "strides": [2, 2], "padding": "same", "data_format": "channels_last", "dilation_rate": [1, 1], "groups": 1, "activation": "linear", "use_bias": false, "kernel_initializer": {"class_name": "GlorotUniform", "config": {"seed": null}}, "bias_initializer": {"class_name": "Zeros", "config": {}}, "kernel_regularizer": null, "bias_regularizer": null, "activity_regularizer": null, "kernel_constraint": null, "bias_constraint": null}, "name": "Conv1", "inbound_nodes": [{"args": [{"class_name": "__keras_tensor__", "config": {"shape": [null, 224, 224, 3], "dtype": "float32", "keras_history": ["input_layer_1", 0, 0]}}], "kwargs": {}}]}, {"class_name": "BatchNormalization", "config": {"name": "bn_Conv1", "trainable": false, "dtype": {"class_name": "DTypePolicy", "config": {"name": "float32"}}, "axis": -1, "momentum": 0.999, "epsilon": 0.001, "center": true, "scale": true, "beta_initializer": {"class_name": "Zeros", "config": {}}, "gamma_initializer": {"class_name": "Ones", "config": {}}, "moving_mean_initializer": {"class_name": "Zeros", "config": {}}, "moving_variance_initializer": {"class_name": "Ones", "config": {}}, "beta_regularizer": null, "gamma_regularizer": null, "beta_constraint": null, "gamma_constraint": null, "synchronized": false}, "name": "bn_Conv1", "inbound_nodes": [{"args": [{"class_name": "__keras_tensor__", "config": {"shape": [null, 112, 112, 32], "dtype": "float32", "keras_history": ["Conv1", 0, 0]}}], "kwargs": {"mask": null}}]}, {"class_name": "ReLU", "config": {"name": "Conv1_relu", "trainable": false, "dtype": {"class_name": "DTypePolicy", "config": {"name": "float32"}}, "max_value": 6.0, "negative_slope": 0.0, "threshold": 0.0}, "name": "Conv1_relu", "inbound_nodes": [{"args": [{"class_name": "__keras_tensor__", "config": {"shape": [null, 112, 112, 32], "dtype": "float32", "keras_history": ["bn_Conv1", 0, 0]}}], "kwargs": {}}]}, {"class_name": "DepthwiseConv2D", "config": {"name": "expanded_conv_depthwise", "trainable": false, "dtype": {"class_name": "DTypePolicy", "config": {"name": "float32"}}, "depth_multiplier": 1, "kernel_size": [3, 3], "strides": [1, 1], "padding": "same", "data_format": "channels_last", "dilation_rate": [1, 1], "activation": "linear", "use_bias": false, "depthwise_initializer": {"class_name": "GlorotUniform", "config": {"seed": null}}, "bias_initializer": {"class_name": "Zeros", "config": {}}, "depthwise_regularizer": null, "bias_regularizer": null, "activity_regularizer": null, "depthwise_constraint": null, "bias_constraint": null}, "name": "expanded_conv_depthwise", "inbound_nodes": [{"args": [{"class_name": "__keras_tensor__", "config": {"shape": [null, 112, 112, 32], "dtype": "float32", "keras_history": ["Conv1_relu", 0, 0]}}], "kwargs": {}}]}, {"class_name": "BatchNormalization", "config": {"name": "expanded_conv_depthwise_BN", "trainable": false, "dtype": {"class_name": "DTypePolicy", "config": {"name": "float32"}}, "axis": -1, "momentum": 0.999, "epsilon": 0.001, "center": true, "scale": true, "beta_initializer": {"class_name": "Zeros", "config": {}}, "gamma_initializer": {"class_name": "Ones", "config": {}}, "moving_mean_initializer": {"class_name": "Zeros", "config": {}}, "moving_variance_initializer": {"class_name": "Ones", "config": {}}, "beta_regularizer": null, "gamma_regularizer": null, "beta_constraint": null, "gamma_constraint": null, "synchronized": false}, "name": "expanded_conv_depthwise_BN", "inbound_nodes": [{"args": [{"class_name": "__keras_tensor__", "config": {"shape": [null, 112, 112, 32], "dtype": "float32", "keras_history": ["expanded_conv_depthwise", 0, 0]}}], "kwargs": {"mask": null}}]}, {"class_name": "ReLU", "config": {"name": "expanded_conv_depthwise_relu", "trainable": false, "dtype": {"class_name": "DTypePolicy", "config": {"name": "float32"}}, "max_value": 6.0, "negative_slope": 0.0, "threshold": 0.0}, "name": "expanded_conv_depthwise_relu", "inbound_nodes": [{"args": [{"class_name": "__keras_tensor__", "config": {"shape": [null, 112, 112, 32], "dtype": "float32", "keras_history": ["expanded_conv_depthwise_BN", 0, 0]}}], "kwargs": {}}]}, {"class_name": "Conv2D", "config": {"name": "expanded_conv_project", "trainable": false, "dtype": {"class_name": "DTypePolicy", "config": {"name": "float32"}}, "filters": 16, "kernel_size": [1, 1], "strides": [1, 1], "padding": "same", "data_format": "channels_last", "dilation_rate": [1, 1], "groups": 1, "activation": "linear", "use_bias": false, "kernel_initializer": {"class_name": "GlorotUniform", "config": {"seed": null}}, "bias_initializer": {"class_name": "Zeros", "config": {}}, "kernel_regularizer": null, "bias_regularizer": null, "activity_regularizer": null, "kernel_constraint": null, "bias_constraint": null}, "name": "expanded_conv_project", "inbound_nodes": [{"args": [{"class_name": "__keras_tensor__", "config": {"shape": [null, 112, 112, 32], "dtype": "float32", "keras_history": ["expanded_conv_depthwise_relu", 0, 0]}}], "kwargs": {}}]}, {"class_name": "BatchNormalization", "config": {"name": "expanded_conv_project_BN", "trainable": false, "dtype": {"class_name": "DTypePolicy", "config": {"name": "float32"}}, "axis": -1, "momentum": 0.999, "epsilon": 0.001, "center": true, "scale": true, "beta_initializer": {"class_name": "Zeros", "config": {}}, "gamma_initializer": {"class_name": "Ones", "config": {}}, "moving_mean_initializer": {"class_name": "Zeros", "config": {}}, "moving_variance_initializer": {"class_name": "Ones", "config": {}}, "beta_regularizer": null, "gamma_regularizer": null, "beta_constraint": null, "gamma_constraint": null, "synchronized": false}, "name": "expanded_conv_project_BN", "inbound_nodes": [{"args": [{"class_name": "__keras_tensor__", "config": {"shape": [null, 112, 112, 16], "dtype": "float32", "keras_history": ["expanded_conv_project", 0, 0]}}], "kwargs": {"mask": null}}]}, {"class_name": "Conv2D", "config": {"name": "block_1_expand", "trainable": false, "dtype": {"class_name": "DTypePolicy", "config": {"name": "float32"}}, "filters": 96, "kernel_size": [1, 1], "strides": [1, 1], "padding": "same", "data_format": "channels_last", "dilation_rate": [1, 1], "groups": 1, "activation": "linear", "use_bias": false, "kernel_initializer": {"class_name": "GlorotUniform", "config": {"seed": null}}, "bias_initializer": {"class_name": "Zeros", "config": {}}, "kernel_regularizer": null, "bias_regularizer": null, "activity_regularizer": null, "kernel_constraint": null, "bias_constraint": null}, "name": "block_1_expand", "inbound_nodes": [{"args": [{"class_name": "__keras_tensor__", "config": {"shape": [null, 112, 112, 16], "dtype": "float32", "keras_history": ["expanded_conv_project_BN", 0, 0]}}], "kwargs": {}}]}, {"class_name": "BatchNormalization", "config": {"name": "block_1_expand_BN", "trainable": false, "dtype": {"class_name": "DTypePolicy", "config": {"name": "float32"}}, "axis": -1, "momentum": 0.999, "epsilon": 0.001, "center": true, "scale": true, "beta_initializer": {"class_name": "Zeros", "config": {}}, "gamma_initializer": {"class_name": "Ones", "config": {}}, "moving_mean_initializer": {"class_name": "Zeros", "config": {}}, "moving_variance_initializer": {"class_name": "Ones", "config": {}}, "beta_regularizer": null, "gamma_regularizer": null, "beta_constraint": null, "gamma_constraint": null, "synchronized": false}, "name": "block_1_expand_BN", "inbound_nodes": [{"args": [{"class_name": "__keras_tensor__", "config": {"shape": [null, 112, 112, 96], "dtype": "float32", "keras_history": ["block_1_expand", 0, 0]}}], "kwargs": {"mask": null}}]}, {"class_name": "ReLU", "config": {"name": "block_1_expand_relu", "trainable": false, "dtype": {"class_name": "DTypePolicy", "config": {"name": "float32"}}, "max_value": 6.0, "negative_slope": 0.0, "threshold": 0.0}, "name": "block_1_expand_relu", "inbound_nodes": [{"args": [{"class_name": "__keras_tensor__", "config": {"shape": [null, 112, 112, 96], "dtype": "float32", "keras_history": ["block_1_expand_BN", 0, 0]}}], "kwargs": {}}]}, {"class_name": "ZeroPadding2D", "config": {"name": "block_1_pad", "trainable": false, "dtype": {"class_name": "DTypePolicy", "config": {"name": "float32"}}, "padding": [[0, 1], [0, 1]], "data_format": "channels_last"}, "name": "block_1_pad", "inbound_nodes": [{"args": [{"class_name": "__keras_tensor__", "config": {"shape": [null, 112, 112, 96], "dtype": "float32", "keras_history": ["block_1_expand_relu", 0, 0]}}], "kwargs": {}}]}, {"class_name": "DepthwiseConv2D", "config": {"name": "block_1_depthwise", "trainable": false, "dtype": {"class_name": "DTypePolicy", "config": {"name": "float32"}}, "depth_multiplier": 1, "kernel_size": [3, 3], "strides": [2, 2], "padding": "valid", "data_format": "channels_last", "dilation_rate": [1, 1], "activation": "linear", "use_bias": false, "depthwise_initializer": {"class_name": "GlorotUniform", "config": {"seed": null}}, "bias_initializer": {"class_name": "Zeros", "config": {}}, "depthwise_regularizer": null, "bias_regularizer": null, "activity_regularizer": null, "depthwise_constraint": null, "bias_constraint": null}, "name": "block_1_depthwise", "inbound_nodes": [{"args": [{"class_name": "__keras_tensor__", "config": {"shape": [null, 113, 113, 96], "dtype": "float32", "keras_history": ["block_1_pad", 0, 0]}}], "kwargs": {}}]}, {"class_name": "BatchNormalization", "config": {"name": "block_1_depthwise_BN", "trainable": false, "dtype": {"class_name": "DTypePolicy", "config": {"name": "float32"}}, "axis": -1, "momentum": 0.999, "epsilon": 0.001, "center": true, "scale": true, "beta_initializer": {"class_name": "Zeros", "config": {}}, "gamma_initializer": {"class_name": "Ones", "config": {}}, "moving_mean_initializer": {"class_name": "Zeros", "config": {}}, "moving_variance_initializer": {"class_name": "Ones", "config": {}}, "beta_regularizer": null, "gamma_regularizer": null, "beta_constraint": null, "gamma_constraint": null, "synchronized": false}, "name": "block_1_depthwise_BN", "inbound_nodes": [{"args": [{"class_name": "__keras_tensor__", "config": {"shape": [null, 56, 56, 96], "dtype": "float32", "keras_history": ["block_1_depthwise", 0, 0]}}], "kwargs": {"mask": null}}]}, {"class_name": "ReLU", "config": {"name": "block_1_depthwise_relu", "trainable": false, "dtype": {"class_name": "DTypePolicy", "config": {"name": "float32"}}, "max_value": 6.0, "negative_slope": 0.0, "threshold": 0.0}, "name": "block_1_depthwise_relu", "inbound_nodes": [{"args": [{"class_name": "__keras_tensor__", "config": {"shape": [null, 56, 56, 96], "dtype": "float32", "keras_history": ["block_1_depthwise_BN", 0, 0]}}], "kwargs": {}}]}, {"class_name": "Conv2D", "config": {"name": "block_1_project", "trainable": false, "dtype": {"class_name": "DTypePolicy", "config": {"name": "float32"}}, "filters": 24, "kernel_size": [1, 1], "strides": [1, 1], "padding": "same", "data_format": "channels_last", "dilation_rate": [1, 1], "groups": 1, "activation": "linear", "use_bias": false, "kernel_initializer": {"class_name": "GlorotUniform", "config": {"seed": null}}, "bias_initializer": {"class_name": "Zeros", "config": {}}, "kernel_regularizer": null, "bias_regularizer": null, "activity_regularizer": null, "kernel_constraint": null, "bias_constraint": null}, "name": "block_1_project", "inbound_nodes": [{"args": [{"class_name": "__keras_tensor__", "config": {"shape": [null, 56, 56, 96], "dtype": "float32", "keras_history": ["block_1_depthwise_relu", 0, 0]}}], "kwargs": {}}]}, {"class_name": "BatchNormalization", "config": {"name": "block_1_project_BN", "trainable": false, "dtype": {"class_name": "DTypePolicy", "config": {"name": "float32"}}, "axis": -1, "momentum": 0.999, "epsilon": 0.001, "center": true, "scale": true, "beta_initializer": {"class_name": "Zeros", "config": {}}, "gamma_initializer": {"class_name": "Ones", "config": {}}, "moving_mean_initializer": {"class_name": "Zeros", "config": {}}, "moving_variance_initializer": {"class_name": "Ones", "config": {}}, "beta_regularizer": null, "gamma_regularizer": null, "beta_constraint": null, "gamma_constraint": null, "synchronized": false}, "name": "block_1_project_BN", "inbound_nodes": [{"args": [{"class_name": "__keras_tensor__", "config": {"shape": [null, 56, 56, 24], "dtype": "float32", "keras_history": ["block_1_project", 0, 0]}}], "kwargs": {"mask": null}}]}, {"class_name": "Conv2D", "config": {"name": "block_2_expand", "trainable": false, "dtype": {"class_name": "DTypePolicy", "config": {"name": "float32"}}, "filters": 144, "kernel_size": [1, 1], "strides": [1, 1], "padding": "same", "data_format": "channels_last", "dilation_rate": [1, 1], "groups": 1, "activation": "linear", "use_bias": false, "kernel_initializer": {"class_name": "GlorotUniform", "config": {"seed": null}}, "bias_initializer": {"class_name": "Zeros", "config": {}}, "kernel_regularizer": null, "bias_regularizer": null, "activity_regularizer": null, "kernel_constraint": null, "bias_constraint": null}, "name": "block_2_expand", "inbound_nodes": [{"args": [{"class_name": "__keras_tensor__", "config": {"shape": [null, 56, 56, 24], "dtype": "float32", "keras_history": ["block_1_project_BN", 0, 0]}}], "kwargs": {}}]}, {"class_name": "BatchNormalization", "config": {"name": "block_2_expand_BN", "trainable": false, "dtype": {"class_name": "DTypePolicy", "config": {"name": "float32"}}, "axis": -1, "momentum": 0.999, "epsilon": 0.001, "center": true, "scale": true, "beta_initializer": {"class_name": "Zeros", "config": {}}, "gamma_initializer": {"class_name": "Ones", "config": {}}, "moving_mean_initializer": {"class_name": "Zeros", "config": {}}, "moving_variance_initializer": {"class_name": "Ones", "config": {}}, "beta_regularizer": null, "gamma_regularizer": null, "beta_constraint": null, "gamma_constraint": null, "synchronized": false}, "name": "block_2_expand_BN", "inbound_nodes": [{"args": [{"class_name": "__keras_tensor__", "config": {"shape": [null, 56, 56, 144], "dtype": "float32", "keras_history": ["block_2_expand", 0, 0]}}], "kwargs": {"mask": null}}]}, {"class_name": "ReLU", "config": {"name": "block_2_expand_relu", "trainable": false, "dtype": {"class_name": "DTypePolicy", "config": {"name": "float32"}}, "max_value": 6.0, "negative_slope": 0.0, "threshold": 0.0}, "name": "block_2_expand_relu", "inbound_nodes": [{"args": [{"class_name": "__keras_tensor__", "config": {"shape": [null, 56, 56, 144], "dtype": "float32", "keras_history": ["block_2_expand_BN", 0, 0]}}], "kwargs": {}}]}, {"class_name": "DepthwiseConv2D", "config": {"name": "block_2_depthwise", "trainable": false, "dtype": {"class_name": "DTypePolicy", "config": {"name": "float32"}}, "depth_multiplier": 1, "kernel_size": [3, 3], "strides": [1, 1], "padding": "same", "data_format": "channels_last", "dilation_rate": [1, 1], "activation": "linear", "use_bias": false, "depthwise_initializer": {"class_name": "GlorotUniform", "config": {"seed": null}}, "bias_initializer": {"class_name": "Zeros", "config": {}}, "depthwise_regularizer": null, "bias_regularizer": null, "activity_regularizer": null, "depthwise_constraint": null, "bias_constraint": null}, "name": "block_2_depthwise", "inbound_nodes": [{"args": [{"class_name": "__keras_tensor__", "config": {"shape": [null, 56, 56, 144], "dtype": "float32", "keras_history": ["block_2_expand_relu", 0, 0]}}], "kwargs": {}}]}, {"class_name": "BatchNormalization", "config": {"name": "block_2_depthwise_BN", "trainable": false, "dtype": {"class_name": "DTypePolicy", "config": {"name": "float32"}}, "axis": -1, "momentum": 0.999, "epsilon": 0.001, "center": true, "scale": true, "beta_initializer": {"class_name": "Zeros", "config": {}}, "gamma_initializer": {"class_name": "Ones", "config": {}}, "moving_mean_initializer": {"class_name": "Zeros", "config": {}}, "moving_variance_initializer": {"class_name": "Ones", "config": {}}, "beta_regularizer": null, "gamma_regularizer": null, "beta_constraint": null, "gamma_constraint": null, "synchronized": false}, "name": "block_2_depthwise_BN", "inbound_nodes": [{"args": [{"class_name": "__keras_tensor__", "config": {"shape": [null, 56, 56, 144], "dtype": "float32", "keras_history": ["block_2_depthwise", 0, 0]}}], "kwargs": {"mask": null}}]}, {"class_name": "ReLU", "config": {"name": "block_2_depthwise_relu", "trainable": false, "dtype": {"class_name": "DTypePolicy", "config": {"name": "float32"}}, "max_value": 6.0, "negative_slope": 0.0, "threshold": 0.0}, "name": "block_2_depthwise_relu", "inbound_nodes": [{"args": [{"class_name": "__keras_tensor__", "config": {"shape": [null, 56, 56, 144], "dtype": "float32", "keras_history": ["block_2_depthwise_BN", 0, 0]}}], "kwargs": {}}]}, {"class_name": "Conv2D", "config": {"name": "block_2_project", "trainable": false, "dtype": {"class_name": "DTypePolicy", "config": {"name": "float32"}}, "filters": 24, "kernel_size": [1, 1], "strides": [1, 1], "padding": "same", "data_format": "channels_last", "dilation_rate": [1, 1], "groups": 1, "activation": "linear", "use_bias": false, "kernel_initializer": {"class_name": "GlorotUniform", "config": {"seed": null}}, "bias_initializer": {"class_name": "Zeros", "config": {}}, "kernel_regularizer": null, "bias_regularizer": null, "activity_regularizer": null, "kernel_constraint": null, "bias_constraint": null}, "name": "block_2_project", "inbound_nodes": [{"args": [{"class_name": "__keras_tensor__", "config": {"shape": [null, 56, 56, 144], "dtype": "float32", "keras_history": ["block_2_depthwise_relu", 0, 0]}}], "kwargs": {}}]}, {"class_name": "BatchNormalization", "config": {"name": "block_2_project_BN", "trainable": false, "dtype": {"class_name": "DTypePolicy", "config": {"name": "float32"}}, "axis": -1, "momentum": 0.999, "epsilon": 0.001, "center": true, "scale": true, "beta_initializer": {"class_name": "Zeros", "config": {}}, "gamma_initializer": {"class_name": "Ones", "config": {}}, "moving_mean_initializer": {"class_name": "Zeros", "config": {}}, "moving_variance_initializer": {"class_name": "Ones", "config": {}}, "beta_regularizer": null, "gamma_regularizer": null, "beta_constraint": null, "gamma_constraint": null, "synchronized": false}, "name": "block_2_project_BN", "inbound_nodes": [{"args": [{"class_name": "__keras_tensor__", "config": {"shape": [null, 56, 56, 24], "dtype": "float32", "keras_history": ["block_2_project", 0, 0]}}], "kwargs": {"mask": null}}]}, {"class_name": "Add", "config": {"name": "block_2_add", "trainable": false, "dtype": {"class_name": "DTypePolicy", "config": {"name": "float32"}}}, "name": "block_2_add", "inbound_nodes": [{"args": [[{"class_name": "__keras_tensor__", "config": {"shape": [null, 56, 56, 24], "dtype": "float32", "keras_history": ["block_1_project_BN", 0, 0]}}, {"class_name": "__keras_tensor__", "config": {"shape": [null, 56, 56, 24], "dtype": "float32", "keras_history": ["block_2_project_BN", 0, 0]}}]], "kwargs": {}}]}, {"class_name": "Conv2D", "config": {"name": "block_3_expand", "trainable": false, "dtype": {"class_name": "DTypePolicy", "config": {"name": "float32"}}, "filters": 144, "kernel_size": [1, 1], "strides": [1, 1], "padding": "same", "data_format": "channels_last", "dilation_rate": [1, 1], "groups": 1, "activation": "linear", "use_bias": false, "kernel_initializer": {"class_name": "GlorotUniform", "config": {"seed": null}}, "bias_initializer": {"class_name": "Zeros", "config": {}}, "kernel_regularizer": null, "bias_regularizer": null, "activity_regularizer": null, "kernel_constraint": null, "bias_constraint": null}, "name": "block_3_expand", "inbound_nodes": [{"args": [{"class_name": "__keras_tensor__", "config": {"shape": [null, 56, 56, 24], "dtype": "float32", "keras_history": ["block_2_add", 0, 0]}}], "kwargs": {}}]}, {"class_name": "BatchNormalization", "config": {"name": "block_3_expand_BN", "trainable": false, "dtype": {"class_name": "DTypePolicy", "config": {"name": "float32"}}, "axis": -1, "momentum": 0.999, "epsilon": 0.001, "center": true, "scale": true, "beta_initializer": {"class_name": "Zeros", "config": {}}, "gamma_initializer": {"class_name": "Ones", "config": {}}, "moving_mean_initializer": {"class_name": "Zeros", "config": {}}, "moving_variance_initializer": {"class_name": "Ones", "config": {}}, "beta_regularizer": null, "gamma_regularizer": null, "beta_constraint": null, "gamma_constraint": null, "synchronized": false}, "name": "block_3_expand_BN", "inbound_nodes": [{"args": [{"class_name": "__keras_tensor__", "config": {"shape": [null, 56, 56, 144], "dtype": "float32", "keras_history": ["block_3_expand", 0, 0]}}], "kwargs": {"mask": null}}]}, {"class_name": "ReLU", "config": {"name": "block_3_expand_relu", "trainable": false, "dtype": {"class_name": "DTypePolicy", "config": {"name": "float32"}}, "max_value": 6.0, "negative_slope": 0.0, "threshold": 0.0}, "name": "block_3_expand_relu", "inbound_nodes": [{"args": [{"class_name": "__keras_tensor__", "config": {"shape": [null, 56, 56, 144], "dtype": "float32", "keras_history": ["block_3_expand_BN", 0, 0]}}], "kwargs": {}}]}, {"class_name": "ZeroPadding2D", "config": {"name": "block_3_pad", "trainable": false, "dtype": {"class_name": "DTypePolicy", "config": {"name": "float32"}}, "padding": [[0, 1], [0, 1]], "data_format": "channels_last"}, "name": "block_3_pad", "inbound_nodes": [{"args": [{"class_name": "__keras_tensor__", "config": {"shape": [null, 56, 56, 144], "dtype": "float32", "keras_history": ["block_3_expand_relu", 0, 0]}}], "kwargs": {}}]}, {"class_name": "DepthwiseConv2D", "config": {"name": "block_3_depthwise", "trainable": false, "dtype": {"class_name": "DTypePolicy", "config": {"name": "float32"}}, "depth_multiplier": 1, "kernel_size": [3, 3], "strides": [2, 2], "padding": "valid", "data_format": "channels_last", "dilation_rate": [1, 1], "activation": "linear", "use_bias": false, "depthwise_initializer": {"class_name": "GlorotUniform", "config": {"seed": null}}, "bias_initializer": {"class_name": "Zeros", "config": {}}, "depthwise_regularizer": null, "bias_regularizer": null, "activity_regularizer": null, "depthwise_constraint": null, "bias_constraint": null}, "name": "block_3_depthwise", "inbound_nodes": [{"args": [{"class_name": "__keras_tensor__", "config": {"shape": [null, 57, 57, 144], "dtype": "float32", "keras_history": ["block_3_pad", 0, 0]}}], "kwargs": {}}]}, {"class_name": "BatchNormalization", "config": {"name": "block_3_depthwise_BN", "trainable": false, "dtype": {"class_name": "DTypePolicy", "config": {"name": "float32"}}, "axis": -1, "momentum": 0.999, "epsilon": 0.001, "center": true, "scale": true, "beta_initializer": {"class_name": "Zeros", "config": {}}, "gamma_initializer": {"class_name": "Ones", "config": {}}, "moving_mean_initializer": {"class_name": "Zeros", "config": {}}, "moving_variance_initializer": {"class_name": "Ones", "config": {}}, "beta_regularizer": null, "gamma_regularizer": null, "beta_constraint": null, "gamma_constraint": null, "synchronized": false}, "name": "block_3_depthwise_BN", "inbound_nodes": [{"args": [{"class_name": "__keras_tensor__", "config": {"shape": [null, 28, 28, 144], "dtype": "float32", "keras_history": ["block_3_depthwise", 0, 0]}}], "kwargs": {"mask": null}}]}, {"class_name": "ReLU", "config": {"name": "block_3_depthwise_relu", "trainable": false, "dtype": {"class_name": "DTypePolicy", "config": {"name": "float32"}}, "max_value": 6.0, "negative_slope": 0.0, "threshold": 0.0}, "name": "block_3_depthwise_relu", "inbound_nodes": [{"args": [{"class_name": "__keras_tensor__", "config": {"shape": [null, 28, 28, 144], "dtype": "float32", "keras_history": ["block_3_depthwise_BN", 0, 0]}}], "kwargs": {}}]}, {"class_name": "Conv2D", "config": {"name": "block_3_project", "trainable": false, "dtype": {"class_name": "DTypePolicy", "config": {"name": "float32"}}, "filters": 32, "kernel_size": [1, 1], "strides": [1, 1], "padding": "same", "data_format": "channels_last", "dilation_rate": [1, 1], "groups": 1, "activation": "linear", "use_bias": false, "kernel_initializer": {"class_name": "GlorotUniform", "config": {"seed": null}}, "bias_initializer": {"class_name": "Zeros", "config": {}}, "kernel_regularizer": null, "bias_regularizer": null, "activity_regularizer": null, "kernel_constraint": null, "bias_constraint": null}, "name": "block_3_project", "inbound_nodes": [{"args": [{"class_name": "__keras_tensor__", "config": {"shape": [null, 28, 28, 144], "dtype": "float32", "keras_history": ["block_3_depthwise_relu", 0, 0]}}], "kwargs": {}}]}, {"class_name": "BatchNormalization", "config": {"name": "block_3_project_BN", "trainable": false, "dtype": {"class_name": "DTypePolicy", "config": {"name": "float32"}}, "axis": -1, "momentum": 0.999, "epsilon": 0.001, "center": true, "scale": true, "beta_initializer": {"class_name": "Zeros", "config": {}}, "gamma_initializer": {"class_name": "Ones", "config": {}}, "moving_mean_initializer": {"class_name": "Zeros", "config": {}}, "moving_variance_initializer": {"class_name": "Ones", "config": {}}, "beta_regularizer": null, "gamma_regularizer": null, "beta_constraint": null, "gamma_constraint": null, "synchronized": false}, "name": "block_3_project_BN", "inbound_nodes": [{"args": [{"class_name": "__keras_tensor__", "config": {"shape": [null, 28, 28, 32], "dtype": "float32", "keras_history": ["block_3_project", 0, 0]}}], "kwargs": {"mask": null}}]}, {"class_name": "Conv2D", "config": {"name": "block_4_expand", "trainable": false, "dtype": {"class_name": "DTypePolicy", "config": {"name": "float32"}}, "filters": 192, "kernel_size": [1, 1], "strides": [1, 1], "padding": "same", "data_format": "channels_last", "dilation_rate": [1, 1], "groups": 1, "activation": "linear", "use_bias": false, "kernel_initializer": {"class_name": "GlorotUniform", "config": {"seed": null}}, "bias_initializer": {"class_name": "Zeros", "config": {}}, "kernel_regularizer": null, "bias_regularizer": null, "activity_regularizer": null, "kernel_constraint": null, "bias_constraint": null}, "name": "block_4_expand", "inbound_nodes": [{"args": [{"class_name": "__keras_tensor__", "config": {"shape": [null, 28, 28, 32], "dtype": "float32", "keras_history": ["block_3_project_BN", 0, 0]}}], "kwargs": {}}]}, {"class_name": "BatchNormalization", "config": {"name": "block_4_expand_BN", "trainable": false, "dtype": {"class_name": "DTypePolicy", "config": {"name": "float32"}}, "axis": -1, "momentum": 0.999, "epsilon": 0.001, "center": true, "scale": true, "beta_initializer": {"class_name": "Zeros", "config": {}}, "gamma_initializer": {"class_name": "Ones", "config": {}}, "moving_mean_initializer": {"class_name": "Zeros", "config": {}}, "moving_variance_initializer": {"class_name": "Ones", "config": {}}, "beta_regularizer": null, "gamma_regularizer": null, "beta_constraint": null, "gamma_constraint": null, "synchronized": false}, "name": "block_4_expand_BN", "inbound_nodes": [{"args": [{"class_name": "__keras_tensor__", "config": {"shape": [null, 28, 28, 192], "dtype": "float32", "keras_history": ["block_4_expand", 0, 0]}}], "kwargs": {"mask": null}}]}, {"class_name": "ReLU", "config": {"name": "block_4_expand_relu", "trainable": false, "dtype": {"class_name": "DTypePolicy", "config": {"name": "float32"}}, "max_value": 6.0, "negative_slope": 0.0, "threshold": 0.0}, "name": "block_4_expand_relu", "inbound_nodes": [{"args": [{"class_name": "__keras_tensor__", "config": {"shape": [null, 28, 28, 192], "dtype": "float32", "keras_history": ["block_4_expand_BN", 0, 0]}}], "kwargs": {}}]}, {"class_name": "DepthwiseConv2D", "config": {"name": "block_4_depthwise", "trainable": false, "dtype": {"class_name": "DTypePolicy", "config": {"name": "float32"}}, "depth_multiplier": 1, "kernel_size": [3, 3], "strides": [1, 1], "padding": "same", "data_format": "channels_last", "dilation_rate": [1, 1], "activation": "linear", "use_bias": false, "depthwise_initializer": {"class_name": "GlorotUniform", "config": {"seed": null}}, "bias_initializer": {"class_name": "Zeros", "config": {}}, "depthwise_regularizer": null, "bias_regularizer": null, "activity_regularizer": null, "depthwise_constraint": null, "bias_constraint": null}, "name": "block_4_depthwise", "inbound_nodes": [{"args": [{"class_name": "__keras_tensor__", "config": {"shape": [null, 28, 28, 192], "dtype": "float32", "keras_history": ["block_4_expand_relu", 0, 0]}}], "kwargs": {}}]}, {"class_name": "BatchNormalization", "config": {"name": "block_4_depthwise_BN", "trainable": false, "dtype": {"class_name": "DTypePolicy", "config": {"name": "float32"}}, "axis": -1, "momentum": 0.999, "epsilon": 0.001, "center": true, "scale": true, "beta_initializer": {"class_name": "Zeros", "config": {}}, "gamma_initializer": {"class_name": "Ones", "config": {}}, "moving_mean_initializer": {"class_name": "Zeros", "config": {}}, "moving_variance_initializer": {"class_name": "Ones", "config": {}}, "beta_regularizer": null, "gamma_regularizer": null, "beta_constraint": null, "gamma_constraint": null, "synchronized": false}, "name": "block_4_depthwise_BN", "inbound_nodes": [{"args": [{"class_name": "__keras_tensor__", "config": {"shape": [null, 28, 28, 192], "dtype": "float32", "keras_history": ["block_4_depthwise", 0, 0]}}], "kwargs": {"mask": null}}]}, {"class_name": "ReLU", "config": {"name": "block_4_depthwise_relu", "trainable": false, "dtype": {"class_name": "DTypePolicy", "config": {"name": "float32"}}, "max_value": 6.0, "negative_slope": 0.0, "threshold": 0.0}, "name": "block_4_depthwise_relu", "inbound_nodes": [{"args": [{"class_name": "__keras_tensor__", "config": {"shape": [null, 28, 28, 192], "dtype": "float32", "keras_history": ["block_4_depthwise_BN", 0, 0]}}], "kwargs": {}}]}, {"class_name": "Conv2D", "config": {"name": "block_4_project", "trainable": false, "dtype": {"class_name": "DTypePolicy", "config": {"name": "float32"}}, "filters": 32, "kernel_size": [1, 1], "strides": [1, 1], "padding": "same", "data_format": "channels_last", "dilation_rate": [1, 1], "groups": 1, "activation": "linear", "use_bias": false, "kernel_initializer": {"class_name": "GlorotUniform", "config": {"seed": null}}, "bias_initializer": {"class_name": "Zeros", "config": {}}, "kernel_regularizer": null, "bias_regularizer": null, "activity_regularizer": null, "kernel_constraint": null, "bias_constraint": null}, "name": "block_4_project", "inbound_nodes": [{"args": [{"class_name": "__keras_tensor__", "config": {"shape": [null, 28, 28, 192], "dtype": "float32", "keras_history": ["block_4_depthwise_relu", 0, 0]}}], "kwargs": {}}]}, {"class_name": "BatchNormalization", "config": {"name": "block_4_project_BN", "trainable": false, "dtype": {"class_name": "DTypePolicy", "config": {"name": "float32"}}, "axis": -1, "momentum": 0.999, "epsilon": 0.001, "center": true, "scale": true, "beta_initializer": {"class_name": "Zeros", "config": {}}, "gamma_initializer": {"class_name": "Ones", "config": {}}, "moving_mean_initializer": {"class_name": "Zeros", "config": {}}, "moving_variance_initializer": {"class_name": "Ones", "config": {}}, "beta_regularizer": null, "gamma_regularizer": null, "beta_constraint": null, "gamma_constraint": null, "synchronized": false}, "name": "block_4_project_BN", "inbound_nodes": [{"args": [{"class_name": "__keras_tensor__", "config": {"shape": [null, 28, 28, 32], "dtype": "float32", "keras_history": ["block_4_project", 0, 0]}}], "kwargs": {"mask": null}}]}, {"class_name": "Add", "config": {"name": "block_4_add", "trainable": false, "dtype": {"class_name": "DTypePolicy", "config": {"name": "float32"}}}, "name": "block_4_add", "inbound_nodes": [{"args": [[{"class_name": "__keras_tensor__", "config": {"shape": [null, 28, 28, 32], "dtype": "float32", "keras_history": ["block_3_project_BN", 0, 0]}}, {"class_name": "__keras_tensor__", "config": {"shape": [null, 28, 28, 32], "dtype": "float32", "keras_history": ["block_4_project_BN", 0, 0]}}]], "kwargs": {}}]}, {"class_name": "Conv2D", "config": {"name": "block_5_expand", "trainable": false, "dtype": {"class_name": "DTypePolicy", "config": {"name": "float32"}}, "filters": 192, "kernel_size": [1, 1], "strides": [1, 1], "padding": "same", "data_format": "channels_last", "dilation_rate": [1, 1], "groups": 1, "activation": "linear", "use_bias": false, "kernel_initializer": {"class_name": "GlorotUniform", "config": {"seed": null}}, "bias_initializer": {"class_name": "Zeros", "config": {}}, "kernel_regularizer": null, "bias_regularizer": null, "activity_regularizer": null, "kernel_constraint": null, "bias_constraint": null}, "name": "block_5_expand", "inbound_nodes": [{"args": [{"class_name": "__keras_tensor__", "config": {"shape": [null, 28, 28, 32], "dtype": "float32", "keras_history": ["block_4_add", 0, 0]}}], "kwargs": {}}]}, {"class_name": "BatchNormalization", "config": {"name": "block_5_expand_BN", "trainable": false, "dtype": {"class_name": "DTypePolicy", "config": {"name": "float32"}}, "axis": -1, "momentum": 0.999, "epsilon": 0.001, "center": true, "scale": true, "beta_initializer": {"class_name": "Zeros", "config": {}}, "gamma_initializer": {"class_name": "Ones", "config": {}}, "moving_mean_initializer": {"class_name": "Zeros", "config": {}}, "moving_variance_initializer": {"class_name": "Ones", "config": {}}, "beta_regularizer": null, "gamma_regularizer": null, "beta_constraint": null, "gamma_constraint": null, "synchronized": false}, "name": "block_5_expand_BN", "inbound_nodes": [{"args": [{"class_name": "__keras_tensor__", "config": {"shape": [null, 28, 28, 192], "dtype": "float32", "keras_history": ["block_5_expand", 0, 0]}}], "kwargs": {"mask": null}}]}, {"class_name": "ReLU", "config": {"name": "block_5_expand_relu", "trainable": false, "dtype": {"class_name": "DTypePolicy", "config": {"name": "float32"}}, "max_value": 6.0, "negative_slope": 0.0, "threshold": 0.0}, "name": "block_5_expand_relu", "inbound_nodes": [{"args": [{"class_name": "__keras_tensor__", "config": {"shape": [null, 28, 28, 192], "dtype": "float32", "keras_history": ["block_5_expand_BN", 0, 0]}}], "kwargs": {}}]}, {"class_name": "DepthwiseConv2D", "config": {"name": "block_5_depthwise", "trainable": false, "dtype": {"class_name": "DTypePolicy", "config": {"name": "float32"}}, "depth_multiplier": 1, "kernel_size": [3, 3], "strides": [1, 1], "padding": "same", "data_format": "channels_last", "dilation_rate": [1, 1], "activation": "linear", "use_bias": false, "depthwise_initializer": {"class_name": "GlorotUniform", "config": {"seed": null}}, "bias_initializer": {"class_name": "Zeros", "config": {}}, "depthwise_regularizer": null, "bias_regularizer": null, "activity_regularizer": null, "depthwise_constraint": null, "bias_constraint": null}, "name": "block_5_depthwise", "inbound_nodes": [{"args": [{"class_name": "__keras_tensor__", "config": {"shape": [null, 28, 28, 192], "dtype": "float32", "keras_history": ["block_5_expand_relu", 0, 0]}}], "kwargs": {}}]}, {"class_name": "BatchNormalization", "config": {"name": "block_5_depthwise_BN", "trainable": false, "dtype": {"class_name": "DTypePolicy", "config": {"name": "float32"}}, "axis": -1, "momentum": 0.999, "epsilon": 0.001, "center": true, "scale": true, "beta_initializer": {"class_name": "Zeros", "config": {}}, "gamma_initializer": {"class_name": "Ones", "config": {}}, "moving_mean_initializer": {"class_name": "Zeros", "config": {}}, "moving_variance_initializer": {"class_name": "Ones", "config": {}}, "beta_regularizer": null, "gamma_regularizer": null, "beta_constraint": null, "gamma_constraint": null, "synchronized": false}, "name": "block_5_depthwise_BN", "inbound_nodes": [{"args": [{"class_name": "__keras_tensor__", "config": {"shape": [null, 28, 28, 192], "dtype": "float32", "keras_history": ["block_5_depthwise", 0, 0]}}], "kwargs": {"mask": null}}]}, {"class_name": "ReLU", "config": {"name": "block_5_depthwise_relu", "trainable": false, "dtype": {"class_name": "DTypePolicy", "config": {"name": "float32"}}, "max_value": 6.0, "negative_slope": 0.0, "threshold": 0.0}, "name": "block_5_depthwise_relu", "inbound_nodes": [{"args": [{"class_name": "__keras_tensor__", "config": {"shape": [null, 28, 28, 192], "dtype": "float32", "keras_history": ["block_5_depthwise_BN", 0, 0]}}], "kwargs": {}}]}, {"class_name": "Conv2D", "config": {"name": "block_5_project", "trainable": false, "dtype": {"class_name": "DTypePolicy", "config": {"name": "float32"}}, "filters": 32, "kernel_size": [1, 1], "strides": [1, 1], "padding": "same", "data_format": "channels_last", "dilation_rate": [1, 1], "groups": 1, "activation": "linear", "use_bias": false, "kernel_initializer": {"class_name": "GlorotUniform", "config": {"seed": null}}, "bias_initializer": {"class_name": "Zeros", "config": {}}, "kernel_regularizer": null, "bias_regularizer": null, "activity_regularizer": null, "kernel_constraint": null, "bias_constraint": null}, "name": "block_5_project", "inbound_nodes": [{"args": [{"class_name": "__keras_tensor__", "config": {"shape": [null, 28, 28, 192], "dtype": "float32", "keras_history": ["block_5_depthwise_relu", 0, 0]}}], "kwargs": {}}]}, {"class_name": "BatchNormalization", "config": {"name": "block_5_project_BN", "trainable": false, "dtype": {"class_name": "DTypePolicy", "config": {"name": "float32"}}, "axis": -1, "momentum": 0.999, "epsilon": 0.001, "center": true, "scale": true, "beta_initializer": {"class_name": "Zeros", "config": {}}, "gamma_initializer": {"class_name": "Ones", "config": {}}, "moving_mean_initializer": {"class_name": "Zeros", "config": {}}, "moving_variance_initializer": {"class_name": "Ones", "config": {}}, "beta_regularizer": null, "gamma_regularizer": null, "beta_constraint": null, "gamma_constraint": null, "synchronized": false}, "name": "block_5_project_BN", "inbound_nodes": [{"args": [{"class_name": "__keras_tensor__", "config": {"shape": [null, 28, 28, 32], "dtype": "float32", "keras_history": ["block_5_project", 0, 0]}}], "kwargs": {"mask": null}}]}, {"class_name": "Add", "config": {"name": "block_5_add", "trainable": false, "dtype": {"class_name": "DTypePolicy", "config": {"name": "float32"}}}, "name": "block_5_add", "inbound_nodes": [{"args": [[{"class_name": "__keras_tensor__", "config": {"shape": [null, 28, 28, 32], "dtype": "float32", "keras_history": ["block_4_add", 0, 0]}}, {"class_name": "__keras_tensor__", "config": {"shape": [null, 28, 28, 32], "dtype": "float32", "keras_history": ["block_5_project_BN", 0, 0]}}]], "kwargs": {}}]}, {"class_name": "Conv2D", "config": {"name": "block_6_expand", "trainable": false, "dtype": {"class_name": "DTypePolicy", "config": {"name": "float32"}}, "filters": 192, "kernel_size": [1, 1], "strides": [1, 1], "padding": "same", "data_format": "channels_last", "dilation_rate": [1, 1], "groups": 1, "activation": "linear", "use_bias": false, "kernel_initializer": {"class_name": "GlorotUniform", "config": {"seed": null}}, "bias_initializer": {"class_name": "Zeros", "config": {}}, "kernel_regularizer": null, "bias_regularizer": null, "activity_regularizer": null, "kernel_constraint": null, "bias_constraint": null}, "name": "block_6_expand", "inbound_nodes": [{"args": [{"class_name": "__keras_tensor__", "config": {"shape": [null, 28, 28, 32], "dtype": "float32", "keras_history": ["block_5_add", 0, 0]}}], "kwargs": {}}]}, {"class_name": "BatchNormalization", "config": {"name": "block_6_expand_BN", "trainable": false, "dtype": {"class_name": "DTypePolicy", "config": {"name": "float32"}}, "axis": -1, "momentum": 0.999, "epsilon": 0.001, "center": true, "scale": true, "beta_initializer": {"class_name": "Zeros", "config": {}}, "gamma_initializer": {"class_name": "Ones", "config": {}}, "moving_mean_initializer": {"class_name": "Zeros", "config": {}}, "moving_variance_initializer": {"class_name": "Ones", "config": {}}, "beta_regularizer": null, "gamma_regularizer": null, "beta_constraint": null, "gamma_constraint": null, "synchronized": false}, "name": "block_6_expand_BN", "inbound_nodes": [{"args": [{"class_name": "__keras_tensor__", "config": {"shape": [null, 28, 28, 192], "dtype": "float32", "keras_history": ["block_6_expand", 0, 0]}}], "kwargs": {"mask": null}}]}, {"class_name": "ReLU", "config": {"name": "block_6_expand_relu", "trainable": false, "dtype": {"class_name": "DTypePolicy", "config": {"name": "float32"}}, "max_value": 6.0, "negative_slope": 0.0, "threshold": 0.0}, "name": "block_6_expand_relu", "inbound_nodes": [{"args": [{"class_name": "__keras_tensor__", "config": {"shape": [null, 28, 28, 192], "dtype": "float32", "keras_history": ["block_6_expand_BN", 0, 0]}}], "kwargs": {}}]}, {"class_name": "ZeroPadding2D", "config": {"name": "block_6_pad", "trainable": false, "dtype": {"class_name": "DTypePolicy", "config": {"name": "float32"}}, "padding": [[0, 1], [0, 1]], "data_format": "channels_last"}, "name": "block_6_pad", "inbound_nodes": [{"args": [{"class_name": "__keras_tensor__", "config": {"shape": [null, 28, 28, 192], "dtype": "float32", "keras_history": ["block_6_expand_relu", 0, 0]}}], "kwargs": {}}]}, {"class_name": "DepthwiseConv2D", "config": {"name": "block_6_depthwise", "trainable": false, "dtype": {"class_name": "DTypePolicy", "config": {"name": "float32"}}, "depth_multiplier": 1, "kernel_size": [3, 3], "strides": [2, 2], "padding": "valid", "data_format": "channels_last", "dilation_rate": [1, 1], "activation": "linear", "use_bias": false, "depthwise_initializer": {"class_name": "GlorotUniform", "config": {"seed": null}}, "bias_initializer": {"class_name": "Zeros", "config": {}}, "depthwise_regularizer": null, "bias_regularizer": null, "activity_regularizer": null, "depthwise_constraint": null, "bias_constraint": null}, "name": "block_6_depthwise", "inbound_nodes": [{"args": [{"class_name": "__keras_tensor__", "config": {"shape": [null, 29, 29, 192], "dtype": "float32", "keras_history": ["block_6_pad", 0, 0]}}], "kwargs": {}}]}, {"class_name": "BatchNormalization", "config": {"name": "block_6_depthwise_BN", "trainable": false, "dtype": {"class_name": "DTypePolicy", "config": {"name": "float32"}}, "axis": -1, "momentum": 0.999, "epsilon": 0.001, "center": true, "scale": true, "beta_initializer": {"class_name": "Zeros", "config": {}}, "gamma_initializer": {"class_name": "Ones", "config": {}}, "moving_mean_initializer": {"class_name": "Zeros", "config": {}}, "moving_variance_initializer": {"class_name": "Ones", "config": {}}, "beta_regularizer": null, "gamma_regularizer": null, "beta_constraint": null, "gamma_constraint": null, "synchronized": false}, "name": "block_6_depthwise_BN", "inbound_nodes": [{"args": [{"class_name": "__keras_tensor__", "config": {"shape": [null, 14, 14, 192], "dtype": "float32", "keras_history": ["block_6_depthwise", 0, 0]}}], "kwargs": {"mask": null}}]}, {"class_name": "ReLU", "config": {"name": "block_6_depthwise_relu", "trainable": false, "dtype": {"class_name": "DTypePolicy", "config": {"name": "float32"}}, "max_value": 6.0, "negative_slope": 0.0, "threshold": 0.0}, "name": "block_6_depthwise_relu", "inbound_nodes": [{"args": [{"class_name": "__keras_tensor__", "config": {"shape": [null, 14, 14, 192], "dtype": "float32", "keras_history": ["block_6_depthwise_BN", 0, 0]}}], "kwargs": {}}]}, {"class_name": "Conv2D", "config": {"name": "block_6_project", "trainable": false, "dtype": {"class_name": "DTypePolicy", "config": {"name": "float32"}}, "filters": 64, "kernel_size": [1, 1], "strides": [1, 1], "padding": "same", "data_format": "channels_last", "dilation_rate": [1, 1], "groups": 1, "activation": "linear", "use_bias": false, "kernel_initializer": {"class_name": "GlorotUniform", "config": {"seed": null}}, "bias_initializer": {"class_name": "Zeros", "config": {}}, "kernel_regularizer": null, "bias_regularizer": null, "activity_regularizer": null, "kernel_constraint": null, "bias_constraint": null}, "name": "block_6_project", "inbound_nodes": [{"args": [{"class_name": "__keras_tensor__", "config": {"shape": [null, 14, 14, 192], "dtype": "float32", "keras_history": ["block_6_depthwise_relu", 0, 0]}}], "kwargs": {}}]}, {"class_name": "BatchNormalization", "config": {"name": "block_6_project_BN", "trainable": false, "dtype": {"class_name": "DTypePolicy", "config": {"name": "float32"}}, "axis": -1, "momentum": 0.999, "epsilon": 0.001, "center": true, "scale": true, "beta_initializer": {"class_name": "Zeros", "config": {}}, "gamma_initializer": {"class_name": "Ones", "config": {}}, "moving_mean_initializer": {"class_name": "Zeros", "config": {}}, "moving_variance_initializer": {"class_name": "Ones", "config": {}}, "beta_regularizer": null, "gamma_regularizer": null, "beta_constraint": null, "gamma_constraint": null, "synchronized": false}, "name": "block_6_project_BN", "inbound_nodes": [{"args": [{"class_name": "__keras_tensor__", "config": {"shape": [null, 14, 14, 64], "dtype": "float32", "keras_history": ["block_6_project", 0, 0]}}], "kwargs": {"mask": null}}]}, {"class_name": "Conv2D", "config": {"name": "block_7_expand", "trainable": false, "dtype": {"class_name": "DTypePolicy", "config": {"name": "float32"}}, "filters": 384, "kernel_size": [1, 1], "strides": [1, 1], "padding": "same", "data_format": "channels_last", "dilation_rate": [1, 1], "groups": 1, "activation": "linear", "use_bias": false, "kernel_initializer": {"class_name": "GlorotUniform", "config": {"seed": null}}, "bias_initializer": {"class_name": "Zeros", "config": {}}, "kernel_regularizer": null, "bias_regularizer": null, "activity_regularizer": null, "kernel_constraint": null, "bias_constraint": null}, "name": "block_7_expand", "inbound_nodes": [{"args": [{"class_name": "__keras_tensor__", "config": {"shape": [null, 14, 14, 64], "dtype": "float32", "keras_history": ["block_6_project_BN", 0, 0]}}], "kwargs": {}}]}, {"class_name": "BatchNormalization", "config": {"name": "block_7_expand_BN", "trainable": false, "dtype": {"class_name": "DTypePolicy", "config": {"name": "float32"}}, "axis": -1, "momentum": 0.999, "epsilon": 0.001, "center": true, "scale": true, "beta_initializer": {"class_name": "Zeros", "config": {}}, "gamma_initializer": {"class_name": "Ones", "config": {}}, "moving_mean_initializer": {"class_name": "Zeros", "config": {}}, "moving_variance_initializer": {"class_name": "Ones", "config": {}}, "beta_regularizer": null, "gamma_regularizer": null, "beta_constraint": null, "gamma_constraint": null, "synchronized": false}, "name": "block_7_expand_BN", "inbound_nodes": [{"args": [{"class_name": "__keras_tensor__", "config": {"shape": [null, 14, 14, 384], "dtype": "float32", "keras_history": ["block_7_expand", 0, 0]}}], "kwargs": {"mask": null}}]}, {"class_name": "ReLU", "config": {"name": "block_7_expand_relu", "trainable": false, "dtype": {"class_name": "DTypePolicy", "config": {"name": "float32"}}, "max_value": 6.0, "negative_slope": 0.0, "threshold": 0.0}, "name": "block_7_expand_relu", "inbound_nodes": [{"args": [{"class_name": "__keras_tensor__", "config": {"shape": [null, 14, 14, 384], "dtype": "float32", "keras_history": ["block_7_expand_BN", 0, 0]}}], "kwargs": {}}]}, {"class_name": "DepthwiseConv2D", "config": {"name": "block_7_depthwise", "trainable": false, "dtype": {"class_name": "DTypePolicy", "config": {"name": "float32"}}, "depth_multiplier": 1, "kernel_size": [3, 3], "strides": [1, 1], "padding": "same", "data_format": "channels_last", "dilation_rate": [1, 1], "activation": "linear", "use_bias": false, "depthwise_initializer": {"class_name": "GlorotUniform", "config": {"seed": null}}, "bias_initializer": {"class_name": "Zeros", "config": {}}, "depthwise_regularizer": null, "bias_regularizer": null, "activity_regularizer": null, "depthwise_constraint": null, "bias_constraint": null}, "name": "block_7_depthwise", "inbound_nodes": [{"args": [{"class_name": "__keras_tensor__", "config": {"shape": [null, 14, 14, 384], "dtype": "float32", "keras_history": ["block_7_expand_relu", 0, 0]}}], "kwargs": {}}]}, {"class_name": "BatchNormalization", "config": {"name": "block_7_depthwise_BN", "trainable": false, "dtype": {"class_name": "DTypePolicy", "config": {"name": "float32"}}, "axis": -1, "momentum": 0.999, "epsilon": 0.001, "center": true, "scale": true, "beta_initializer": {"class_name": "Zeros", "config": {}}, "gamma_initializer": {"class_name": "Ones", "config": {}}, "moving_mean_initializer": {"class_name": "Zeros", "config": {}}, "moving_variance_initializer": {"class_name": "Ones", "config": {}}, "beta_regularizer": null, "gamma_regularizer": null, "beta_constraint": null, "gamma_constraint": null, "synchronized": false}, "name": "block_7_depthwise_BN", "inbound_nodes": [{"args": [{"class_name": "__keras_tensor__", "config": {"shape": [null, 14, 14, 384], "dtype": "float32", "keras_history": ["block_7_depthwise", 0, 0]}}], "kwargs": {"mask": null}}]}, {"class_name": "ReLU", "config": {"name": "block_7_depthwise_relu", "trainable": false, "dtype": {"class_name": "DTypePolicy", "config": {"name": "float32"}}, "max_value": 6.0, "negative_slope": 0.0, "threshold": 0.0}, "name": "block_7_depthwise_relu", "inbound_nodes": [{"args": [{"class_name": "__keras_tensor__", "config": {"shape": [null, 14, 14, 384], "dtype": "float32", "keras_history": ["block_7_depthwise_BN", 0, 0]}}], "kwargs": {}}]}, {"class_name": "Conv2D", "config": {"name": "block_7_project", "trainable": false, "dtype": {"class_name": "DTypePolicy", "config": {"name": "float32"}}, "filters": 64, "kernel_size": [1, 1], "strides": [1, 1], "padding": "same", "data_format": "channels_last", "dilation_rate": [1, 1], "groups": 1, "activation": "linear", "use_bias": false, "kernel_initializer": {"class_name": "GlorotUniform", "config": {"seed": null}}, "bias_initializer": {"class_name": "Zeros", "config": {}}, "kernel_regularizer": null, "bias_regularizer": null, "activity_regularizer": null, "kernel_constraint": null, "bias_constraint": null}, "name": "block_7_project", "inbound_nodes": [{"args": [{"class_name": "__keras_tensor__", "config": {"shape": [null, 14, 14, 384], "dtype": "float32", "keras_history": ["block_7_depthwise_relu", 0, 0]}}], "kwargs": {}}]}, {"class_name": "BatchNormalization", "config": {"name": "block_7_project_BN", "trainable": false, "dtype": {"class_name": "DTypePolicy", "config": {"name": "float32"}}, "axis": -1, "momentum": 0.999, "epsilon": 0.001, "center": true, "scale": true, "beta_initializer": {"class_name": "Zeros", "config": {}}, "gamma_initializer": {"class_name": "Ones", "config": {}}, "moving_mean_initializer": {"class_name": "Zeros", "config": {}}, "moving_variance_initializer": {"class_name": "Ones", "config": {}}, "beta_regularizer": null, "gamma_regularizer": null, "beta_constraint": null, "gamma_constraint": null, "synchronized": false}, "name": "block_7_project_BN", "inbound_nodes": [{"args": [{"class_name": "__keras_tensor__", "config": {"shape": [null, 14, 14, 64], "dtype": "float32", "keras_history": ["block_7_project", 0, 0]}}], "kwargs": {"mask": null}}]}, {"class_name": "Add", "config": {"name": "block_7_add", "trainable": false, "dtype": {"class_name": "DTypePolicy", "config": {"name": "float32"}}}, "name": "block_7_add", "inbound_nodes": [{"args": [[{"class_name": "__keras_tensor__", "config": {"shape": [null, 14, 14, 64], "dtype": "float32", "keras_history": ["block_6_project_BN", 0, 0]}}, {"class_name": "__keras_tensor__", "config": {"shape": [null, 14, 14, 64], "dtype": "float32", "keras_history": ["block_7_project_BN", 0, 0]}}]], "kwargs": {}}]}, {"class_name": "Conv2D", "config": {"name": "block_8_expand", "trainable": false, "dtype": {"class_name": "DTypePolicy", "config": {"name": "float32"}}, "filters": 384, "kernel_size": [1, 1], "strides": [1, 1], "padding": "same", "data_format": "channels_last", "dilation_rate": [1, 1], "groups": 1, "activation": "linear", "use_bias": false, "kernel_initializer": {"class_name": "GlorotUniform", "config": {"seed": null}}, "bias_initializer": {"class_name": "Zeros", "config": {}}, "kernel_regularizer": null, "bias_regularizer": null, "activity_regularizer": null, "kernel_constraint": null, "bias_constraint": null}, "name": "block_8_expand", "inbound_nodes": [{"args": [{"class_name": "__keras_tensor__", "config": {"shape": [null, 14, 14, 64], "dtype": "float32", "keras_history": ["block_7_add", 0, 0]}}], "kwargs": {}}]}, {"class_name": "BatchNormalization", "config": {"name": "block_8_expand_BN", "trainable": false, "dtype": {"class_name": "DTypePolicy", "config": {"name": "float32"}}, "axis": -1, "momentum": 0.999, "epsilon": 0.001, "center": true, "scale": true, "beta_initializer": {"class_name": "Zeros", "config": {}}, "gamma_initializer": {"class_name": "Ones", "config": {}}, "moving_mean_initializer": {"class_name": "Zeros", "config": {}}, "moving_variance_initializer": {"class_name": "Ones", "config": {}}, "beta_regularizer": null, "gamma_regularizer": null, "beta_constraint": null, "gamma_constraint": null, "synchronized": false}, "name": "block_8_expand_BN", "inbound_nodes": [{"args": [{"class_name": "__keras_tensor__", "config": {"shape": [null, 14, 14, 384], "dtype": "float32", "keras_history": ["block_8_expand", 0, 0]}}], "kwargs": {"mask": null}}]}, {"class_name": "ReLU", "config": {"name": "block_8_expand_relu", "trainable": false, "dtype": {"class_name": "DTypePolicy", "config": {"name": "float32"}}, "max_value": 6.0, "negative_slope": 0.0, "threshold": 0.0}, "name": "block_8_expand_relu", "inbound_nodes": [{"args": [{"class_name": "__keras_tensor__", "config": {"shape": [null, 14, 14, 384], "dtype": "float32", "keras_history": ["block_8_expand_BN", 0, 0]}}], "kwargs": {}}]}, {"class_name": "DepthwiseConv2D", "config": {"name": "block_8_depthwise", "trainable": false, "dtype": {"class_name": "DTypePolicy", "config": {"name": "float32"}}, "depth_multiplier": 1, "kernel_size": [3, 3], "strides": [1, 1], "padding": "same", "data_format": "channels_last", "dilation_rate": [1, 1], "activation": "linear", "use_bias": false, "depthwise_initializer": {"class_name": "GlorotUniform", "config": {"seed": null}}, "bias_initializer": {"class_name": "Zeros", "config": {}}, "depthwise_regularizer": null, "bias_regularizer": null, "activity_regularizer": null, "depthwise_constraint": null, "bias_constraint": null}, "name": "block_8_depthwise", "inbound_nodes": [{"args": [{"class_name": "__keras_tensor__", "config": {"shape": [null, 14, 14, 384], "dtype": "float32", "keras_history": ["block_8_expand_relu", 0, 0]}}], "kwargs": {}}]}, {"class_name": "BatchNormalization", "config": {"name": "block_8_depthwise_BN", "trainable": false, "dtype": {"class_name": "DTypePolicy", "config": {"name": "float32"}}, "axis": -1, "momentum": 0.999, "epsilon": 0.001, "center": true, "scale": true, "beta_initializer": {"class_name": "Zeros", "config": {}}, "gamma_initializer": {"class_name": "Ones", "config": {}}, "moving_mean_initializer": {"class_name": "Zeros", "config": {}}, "moving_variance_initializer": {"class_name": "Ones", "config": {}}, "beta_regularizer": null, "gamma_regularizer": null, "beta_constraint": null, "gamma_constraint": null, "synchronized": false}, "name": "block_8_depthwise_BN", "inbound_nodes": [{"args": [{"class_name": "__keras_tensor__", "config": {"shape": [null, 14, 14, 384], "dtype": "float32", "keras_history": ["block_8_depthwise", 0, 0]}}], "kwargs": {"mask": null}}]}, {"class_name": "ReLU", "config": {"name": "block_8_depthwise_relu", "trainable": false, "dtype": {"class_name": "DTypePolicy", "config": {"name": "float32"}}, "max_value": 6.0, "negative_slope": 0.0, "threshold": 0.0}, "name": "block_8_depthwise_relu", "inbound_nodes": [{"args": [{"class_name": "__keras_tensor__", "config": {"shape": [null, 14, 14, 384], "dtype": "float32", "keras_history": ["block_8_depthwise_BN", 0, 0]}}], "kwargs": {}}]}, {"class_name": "Conv2D", "config": {"name": "block_8_project", "trainable": false, "dtype": {"class_name": "DTypePolicy", "config": {"name": "float32"}}, "filters": 64, "kernel_size": [1, 1], "strides": [1, 1], "padding": "same", "data_format": "channels_last", "dilation_rate": [1, 1], "groups": 1, "activation": "linear", "use_bias": false, "kernel_initializer": {"class_name": "GlorotUniform", "config": {"seed": null}}, "bias_initializer": {"class_name": "Zeros", "config": {}}, "kernel_regularizer": null, "bias_regularizer": null, "activity_regularizer": null, "kernel_constraint": null, "bias_constraint": null}, "name": "block_8_project", "inbound_nodes": [{"args": [{"class_name": "__keras_tensor__", "config": {"shape": [null, 14, 14, 384], "dtype": "float32", "keras_history": ["block_8_depthwise_relu", 0, 0]}}], "kwargs": {}}]}, {"class_name": "BatchNormalization", "config": {"name": "block_8_project_BN", "trainable": false, "dtype": {"class_name": "DTypePolicy", "config": {"name": "float32"}}, "axis": -1, "momentum": 0.999, "epsilon": 0.001, "center": true, "scale": true, "beta_initializer": {"class_name": "Zeros", "config": {}}, "gamma_initializer": {"class_name": "Ones", "config": {}}, "moving_mean_initializer": {"class_name": "Zeros", "config": {}}, "moving_variance_initializer": {"class_name": "Ones", "config": {}}, "beta_regularizer": null, "gamma_regularizer": null, "beta_constraint": null, "gamma_constraint": null, "synchronized": false}, "name": "block_8_project_BN", "inbound_nodes": [{"args": [{"class_name": "__keras_tensor__", "config": {"shape": [null, 14, 14, 64], "dtype": "float32", "keras_history": ["block_8_project", 0, 0]}}], "kwargs": {"mask": null}}]}, {"class_name": "Add", "config": {"name": "block_8_add", "trainable": false, "dtype": {"class_name": "DTypePolicy", "config": {"name": "float32"}}}, "name": "block_8_add", "inbound_nodes": [{"args": [[{"class_name": "__keras_tensor__", "config": {"shape": [null, 14, 14, 64], "dtype": "float32", "keras_history": ["block_7_add", 0, 0]}}, {"class_name": "__keras_tensor__", "config": {"shape": [null, 14, 14, 64], "dtype": "float32", "keras_history": ["block_8_project_BN", 0, 0]}}]], "kwargs": {}}]}, {"class_name": "Conv2D", "config": {"name": "block_9_expand", "trainable": false, "dtype": {"class_name": "DTypePolicy", "config": {"name": "float32"}}, "filters": 384, "kernel_size": [1, 1], "strides": [1, 1], "padding": "same", "data_format": "channels_last", "dilation_rate": [1, 1], "groups": 1, "activation": "linear", "use_bias": false, "kernel_initializer": {"class_name": "GlorotUniform", "config": {"seed": null}}, "bias_initializer": {"class_name": "Zeros", "config": {}}, "kernel_regularizer": null, "bias_regularizer": null, "activity_regularizer": null, "kernel_constraint": null, "bias_constraint": null}, "name": "block_9_expand", "inbound_nodes": [{"args": [{"class_name": "__keras_tensor__", "config": {"shape": [null, 14, 14, 64], "dtype": "float32", "keras_history": ["block_8_add", 0, 0]}}], "kwargs": {}}]}, {"class_name": "BatchNormalization", "config": {"name": "block_9_expand_BN", "trainable": false, "dtype": {"class_name": "DTypePolicy", "config": {"name": "float32"}}, "axis": -1, "momentum": 0.999, "epsilon": 0.001, "center": true, "scale": true, "beta_initializer": {"class_name": "Zeros", "config": {}}, "gamma_initializer": {"class_name": "Ones", "config": {}}, "moving_mean_initializer": {"class_name": "Zeros", "config": {}}, "moving_variance_initializer": {"class_name": "Ones", "config": {}}, "beta_regularizer": null, "gamma_regularizer": null, "beta_constraint": null, "gamma_constraint": null, "synchronized": false}, "name": "block_9_expand_BN", "inbound_nodes": [{"args": [{"class_name": "__keras_tensor__", "config": {"shape": [null, 14, 14, 384], "dtype": "float32", "keras_history": ["block_9_expand", 0, 0]}}], "kwargs": {"mask": null}}]}, {"class_name": "ReLU", "config": {"name": "block_9_expand_relu", "trainable": false, "dtype": {"class_name": "DTypePolicy", "config": {"name": "float32"}}, "max_value": 6.0, "negative_slope": 0.0, "threshold": 0.0}, "name": "block_9_expand_relu", "inbound_nodes": [{"args": [{"class_name": "__keras_tensor__", "config": {"shape": [null, 14, 14, 384], "dtype": "float32", "keras_history": ["block_9_expand_BN", 0, 0]}}], "kwargs": {}}]}, {"class_name": "DepthwiseConv2D", "config": {"name": "block_9_depthwise", "trainable": false, "dtype": {"class_name": "DTypePolicy", "config": {"name": "float32"}}, "depth_multiplier": 1, "kernel_size": [3, 3], "strides": [1, 1], "padding": "same", "data_format": "channels_last", "dilation_rate": [1, 1], "activation": "linear", "use_bias": false, "depthwise_initializer": {"class_name": "GlorotUniform", "config": {"seed": null}}, "bias_initializer": {"class_name": "Zeros", "config": {}}, "depthwise_regularizer": null, "bias_regularizer": null, "activity_regularizer": null, "depthwise_constraint": null, "bias_constraint": null}, "name": "block_9_depthwise", "inbound_nodes": [{"args": [{"class_name": "__keras_tensor__", "config": {"shape": [null, 14, 14, 384], "dtype": "float32", "keras_history": ["block_9_expand_relu", 0, 0]}}], "kwargs": {}}]}, {"class_name": "BatchNormalization", "config": {"name": "block_9_depthwise_BN", "trainable": false, "dtype": {"class_name": "DTypePolicy", "config": {"name": "float32"}}, "axis": -1, "momentum": 0.999, "epsilon": 0.001, "center": true, "scale": true, "beta_initializer": {"class_name": "Zeros", "config": {}}, "gamma_initializer": {"class_name": "Ones", "config": {}}, "moving_mean_initializer": {"class_name": "Zeros", "config": {}}, "moving_variance_initializer": {"class_name": "Ones", "config": {}}, "beta_regularizer": null, "gamma_regularizer": null, "beta_constraint": null, "gamma_constraint": null, "synchronized": false}, "name": "block_9_depthwise_BN", "inbound_nodes": [{"args": [{"class_name": "__keras_tensor__", "config": {"shape": [null, 14, 14, 384], "dtype": "float32", "keras_history": ["block_9_depthwise", 0, 0]}}], "kwargs": {"mask": null}}]}, {"class_name": "ReLU", "config": {"name": "block_9_depthwise_relu", "trainable": false, "dtype": {"class_name": "DTypePolicy", "config": {"name": "float32"}}, "max_value": 6.0, "negative_slope": 0.0, "threshold": 0.0}, "name": "block_9_depthwise_relu", "inbound_nodes": [{"args": [{"class_name": "__keras_tensor__", "config": {"shape": [null, 14, 14, 384], "dtype": "float32", "keras_history": ["block_9_depthwise_BN", 0, 0]}}], "kwargs": {}}]}, {"class_name": "Conv2D", "config": {"name": "block_9_project", "trainable": false, "dtype": {"class_name": "DTypePolicy", "config": {"name": "float32"}}, "filters": 64, "kernel_size": [1, 1], "strides": [1, 1], "padding": "same", "data_format": "channels_last", "dilation_rate": [1, 1], "groups": 1, "activation": "linear", "use_bias": false, "kernel_initializer": {"class_name": "GlorotUniform", "config": {"seed": null}}, "bias_initializer": {"class_name": "Zeros", "config": {}}, "kernel_regularizer": null, "bias_regularizer": null, "activity_regularizer": null, "kernel_constraint": null, "bias_constraint": null}, "name": "block_9_project", "inbound_nodes": [{"args": [{"class_name": "__keras_tensor__", "config": {"shape": [null, 14, 14, 384], "dtype": "float32", "keras_history": ["block_9_depthwise_relu", 0, 0]}}], "kwargs": {}}]}, {"class_name": "BatchNormalization", "config": {"name": "block_9_project_BN", "trainable": false, "dtype": {"class_name": "DTypePolicy", "config": {"name": "float32"}}, "axis": -1, "momentum": 0.999, "epsilon": 0.001, "center": true, "scale": true, "beta_initializer": {"class_name": "Zeros", "config": {}}, "gamma_initializer": {"class_name": "Ones", "config": {}}, "moving_mean_initializer": {"class_name": "Zeros", "config": {}}, "moving_variance_initializer": {"class_name": "Ones", "config": {}}, "beta_regularizer": null, "gamma_regularizer": null, "beta_constraint": null, "gamma_constraint": null, "synchronized": false}, "name": "block_9_project_BN", "inbound_nodes": [{"args": [{"class_name": "__keras_tensor__", "config": {"shape": [null, 14, 14, 64], "dtype": "float32", "keras_history": ["block_9_project", 0, 0]}}], "kwargs": {"mask": null}}]}, {"class_name": "Add", "config": {"name": "block_9_add", "trainable": false, "dtype": {"class_name": "DTypePolicy", "config": {"name": "float32"}}}, "name": "block_9_add", "inbound_nodes": [{"args": [[{"class_name": "__keras_tensor__", "config": {"shape": [null, 14, 14, 64], "dtype": "float32", "keras_history": ["block_8_add", 0, 0]}}, {"class_name": "__keras_tensor__", "config": {"shape": [null, 14, 14, 64], "dtype": "float32", "keras_history": ["block_9_project_BN", 0, 0]}}]], "kwargs": {}}]}, {"class_name": "Conv2D", "config": {"name": "block_10_expand", "trainable": false, "dtype": {"class_name": "DTypePolicy", "config": {"name": "float32"}}, "filters": 384, "kernel_size": [1, 1], "strides": [1, 1], "padding": "same", "data_format": "channels_last", "dilation_rate": [1, 1], "groups": 1, "activation": "linear", "use_bias": false, "kernel_initializer": {"class_name": "GlorotUniform", "config": {"seed": null}}, "bias_initializer": {"class_name": "Zeros", "config": {}}, "kernel_regularizer": null, "bias_regularizer": null, "activity_regularizer": null, "kernel_constraint": null, "bias_constraint": null}, "name": "block_10_expand", "inbound_nodes": [{"args": [{"class_name": "__keras_tensor__", "config": {"shape": [null, 14, 14, 64], "dtype": "float32", "keras_history": ["block_9_add", 0, 0]}}], "kwargs": {}}]}, {"class_name": "BatchNormalization", "config": {"name": "block_10_expand_BN", "trainable": false, "dtype": {"class_name": "DTypePolicy", "config": {"name": "float32"}}, "axis": -1, "momentum": 0.999, "epsilon": 0.001, "center": true, "scale": true, "beta_initializer": {"class_name": "Zeros", "config": {}}, "gamma_initializer": {"class_name": "Ones", "config": {}}, "moving_mean_initializer": {"class_name": "Zeros", "config": {}}, "moving_variance_initializer": {"class_name": "Ones", "config": {}}, "beta_regularizer": null, "gamma_regularizer": null, "beta_constraint": null, "gamma_constraint": null, "synchronized": false}, "name": "block_10_expand_BN", "inbound_nodes": [{"args": [{"class_name": "__keras_tensor__", "config": {"shape": [null, 14, 14, 384], "dtype": "float32", "keras_history": ["block_10_expand", 0, 0]}}], "kwargs": {"mask": null}}]}, {"class_name": "ReLU", "config": {"name": "block_10_expand_relu", "trainable": false, "dtype": {"class_name": "DTypePolicy", "config": {"name": "float32"}}, "max_value": 6.0, "negative_slope": 0.0, "threshold": 0.0}, "name": "block_10_expand_relu", "inbound_nodes": [{"args": [{"class_name": "__keras_tensor__", "config": {"shape": [null, 14, 14, 384], "dtype": "float32", "keras_history": ["block_10_expand_BN", 0, 0]}}], "kwargs": {}}]}, {"class_name": "DepthwiseConv2D", "config": {"name": "block_10_depthwise", "trainable": false, "dtype": {"class_name": "DTypePolicy", "config": {"name": "float32"}}, "depth_multiplier": 1, "kernel_size": [3, 3], "strides": [1, 1], "padding": "same", "data_format": "channels_last", "dilation_rate": [1, 1], "activation": "linear", "use_bias": false, "depthwise_initializer": {"class_name": "GlorotUniform", "config": {"seed": null}}, "bias_initializer": {"class_name": "Zeros", "config": {}}, "depthwise_regularizer": null, "bias_regularizer": null, "activity_regularizer": null, "depthwise_constraint": null, "bias_constraint": null}, "name": "block_10_depthwise", "inbound_nodes": [{"args": [{"class_name": "__keras_tensor__", "config": {"shape": [null, 14, 14, 384], "dtype": "float32", "keras_history": ["block_10_expand_relu", 0, 0]}}], "kwargs": {}}]}, {"class_name": "BatchNormalization", "config": {"name": "block_10_depthwise_BN", "trainable": false, "dtype": {"class_name": "DTypePolicy", "config": {"name": "float32"}}, "axis": -1, "momentum": 0.999, "epsilon": 0.001, "center": true, "scale": true, "beta_initializer": {"class_name": "Zeros", "config": {}}, "gamma_initializer": {"class_name": "Ones", "config": {}}, "moving_mean_initializer": {"class_name": "Zeros", "config": {}}, "moving_variance_initializer": {"class_name": "Ones", "config": {}}, "beta_regularizer": null, "gamma_regularizer": null, "beta_constraint": null, "gamma_constraint": null, "synchronized": false}, "name": "block_10_depthwise_BN", "inbound_nodes": [{"args": [{"class_name": "__keras_tensor__", "config": {"shape": [null, 14, 14, 384], "dtype": "float32", "keras_history": ["block_10_depthwise", 0, 0]}}], "kwargs": {"mask": null}}]}, {"class_name": "ReLU", "config": {"name": "block_10_depthwise_relu", "trainable": false, "dtype": {"class_name": "DTypePolicy", "config": {"name": "float32"}}, "max_value": 6.0, "negative_slope": 0.0, "threshold": 0.0}, "name": "block_10_depthwise_relu", "inbound_nodes": [{"args": [{"class_name": "__keras_tensor__", "config": {"shape": [null, 14, 14, 384], "dtype": "float32", "keras_history": ["block_10_depthwise_BN", 0, 0]}}], "kwargs": {}}]}, {"class_name": "Conv2D", "config": {"name": "block_10_project", "trainable": false, "dtype": {"class_name": "DTypePolicy", "config": {"name": "float32"}}, "filters": 96, "kernel_size": [1, 1], "strides": [1, 1], "padding": "same", "data_format": "channels_last", "dilation_rate": [1, 1], "groups": 1, "activation": "linear", "use_bias": false, "kernel_initializer": {"class_name": "GlorotUniform", "config": {"seed": null}}, "bias_initializer": {"class_name": "Zeros", "config": {}}, "kernel_regularizer": null, "bias_regularizer": null, "activity_regularizer": null, "kernel_constraint": null, "bias_constraint": null}, "name": "block_10_project", "inbound_nodes": [{"args": [{"class_name": "__keras_tensor__", "config": {"shape": [null, 14, 14, 384], "dtype": "float32", "keras_history": ["block_10_depthwise_relu", 0, 0]}}], "kwargs": {}}]}, {"class_name": "BatchNormalization", "config": {"name": "block_10_project_BN", "trainable": false, "dtype": {"class_name": "DTypePolicy", "config": {"name": "float32"}}, "axis": -1, "momentum": 0.999, "epsilon": 0.001, "center": true, "scale": true, "beta_initializer": {"class_name": "Zeros", "config": {}}, "gamma_initializer": {"class_name": "Ones", "config": {}}, "moving_mean_initializer": {"class_name": "Zeros", "config": {}}, "moving_variance_initializer": {"class_name": "Ones", "config": {}}, "beta_regularizer": null, "gamma_regularizer": null, "beta_constraint": null, "gamma_constraint": null, "synchronized": false}, "name": "block_10_project_BN", "inbound_nodes": [{"args": [{"class_name": "__keras_tensor__", "config": {"shape": [null, 14, 14, 96], "dtype": "float32", "keras_history": ["block_10_project", 0, 0]}}], "kwargs": {"mask": null}}]}, {"class_name": "Conv2D", "config": {"name": "block_11_expand", "trainable": false, "dtype": {"class_name": "DTypePolicy", "config": {"name": "float32"}}, "filters": 576, "kernel_size": [1, 1], "strides": [1, 1], "padding": "same", "data_format": "channels_last", "dilation_rate": [1, 1], "groups": 1, "activation": "linear", "use_bias": false, "kernel_initializer": {"class_name": "GlorotUniform", "config": {"seed": null}}, "bias_initializer": {"class_name": "Zeros", "config": {}}, "kernel_regularizer": null, "bias_regularizer": null, "activity_regularizer": null, "kernel_constraint": null, "bias_constraint": null}, "name": "block_11_expand", "inbound_nodes": [{"args": [{"class_name": "__keras_tensor__", "config": {"shape": [null, 14, 14, 96], "dtype": "float32", "keras_history": ["block_10_project_BN", 0, 0]}}], "kwargs": {}}]}, {"class_name": "BatchNormalization", "config": {"name": "block_11_expand_BN", "trainable": false, "dtype": {"class_name": "DTypePolicy", "config": {"name": "float32"}}, "axis": -1, "momentum": 0.999, "epsilon": 0.001, "center": true, "scale": true, "beta_initializer": {"class_name": "Zeros", "config": {}}, "gamma_initializer": {"class_name": "Ones", "config": {}}, "moving_mean_initializer": {"class_name": "Zeros", "config": {}}, "moving_variance_initializer": {"class_name": "Ones", "config": {}}, "beta_regularizer": null, "gamma_regularizer": null, "beta_constraint": null, "gamma_constraint": null, "synchronized": false}, "name": "block_11_expand_BN", "inbound_nodes": [{"args": [{"class_name": "__keras_tensor__", "config": {"shape": [null, 14, 14, 576], "dtype": "float32", "keras_history": ["block_11_expand", 0, 0]}}], "kwargs": {"mask": null}}]}, {"class_name": "ReLU", "config": {"name": "block_11_expand_relu", "trainable": false, "dtype": {"class_name": "DTypePolicy", "config": {"name": "float32"}}, "max_value": 6.0, "negative_slope": 0.0, "threshold": 0.0}, "name": "block_11_expand_relu", "inbound_nodes": [{"args": [{"class_name": "__keras_tensor__", "config": {"shape": [null, 14, 14, 576], "dtype": "float32", "keras_history": ["block_11_expand_BN", 0, 0]}}], "kwargs": {}}]}, {"class_name": "DepthwiseConv2D", "config": {"name": "block_11_depthwise", "trainable": false, "dtype": {"class_name": "DTypePolicy", "config": {"name": "float32"}}, "depth_multiplier": 1, "kernel_size": [3, 3], "strides": [1, 1], "padding": "same", "data_format": "channels_last", "dilation_rate": [1, 1], "activation": "linear", "use_bias": false, "depthwise_initializer": {"class_name": "GlorotUniform", "config": {"seed": null}}, "bias_initializer": {"class_name": "Zeros", "config": {}}, "depthwise_regularizer": null, "bias_regularizer": null, "activity_regularizer": null, "depthwise_constraint": null, "bias_constraint": null}, "name": "block_11_depthwise", "inbound_nodes": [{"args": [{"class_name": "__keras_tensor__", "config": {"shape": [null, 14, 14, 576], "dtype": "float32", "keras_history": ["block_11_expand_relu", 0, 0]}}], "kwargs": {}}]}, {"class_name": "BatchNormalization", "config": {"name": "block_11_depthwise_BN", "trainable": false, "dtype": {"class_name": "DTypePolicy", "config": {"name": "float32"}}, "axis": -1, "momentum": 0.999, "epsilon": 0.001, "center": true, "scale": true, "beta_initializer": {"class_name": "Zeros", "config": {}}, "gamma_initializer": {"class_name": "Ones", "config": {}}, "moving_mean_initializer": {"class_name": "Zeros", "config": {}}, "moving_variance_initializer": {"class_name": "Ones", "config": {}}, "beta_regularizer": null, "gamma_regularizer": null, "beta_constraint": null, "gamma_constraint": null, "synchronized": false}, "name": "block_11_depthwise_BN", "inbound_nodes": [{"args": [{"class_name": "__keras_tensor__", "config": {"shape": [null, 14, 14, 576], "dtype": "float32", "keras_history": ["block_11_depthwise", 0, 0]}}], "kwargs": {"mask": null}}]}, {"class_name": "ReLU", "config": {"name": "block_11_depthwise_relu", "trainable": false, "dtype": {"class_name": "DTypePolicy", "config": {"name": "float32"}}, "max_value": 6.0, "negative_slope": 0.0, "threshold": 0.0}, "name": "block_11_depthwise_relu", "inbound_nodes": [{"args": [{"class_name": "__keras_tensor__", "config": {"shape": [null, 14, 14, 576], "dtype": "float32", "keras_history": ["block_11_depthwise_BN", 0, 0]}}], "kwargs": {}}]}, {"class_name": "Conv2D", "config": {"name": "block_11_project", "trainable": false, "dtype": {"class_name": "DTypePolicy", "config": {"name": "float32"}}, "filters": 96, "kernel_size": [1, 1], "strides": [1, 1], "padding": "same", "data_format": "channels_last", "dilation_rate": [1, 1], "groups": 1, "activation": "linear", "use_bias": false, "kernel_initializer": {"class_name": "GlorotUniform", "config": {"seed": null}}, "bias_initializer": {"class_name": "Zeros", "config": {}}, "kernel_regularizer": null, "bias_regularizer": null, "activity_regularizer": null, "kernel_constraint": null, "bias_constraint": null}, "name": "block_11_project", "inbound_nodes": [{"args": [{"class_name": "__keras_tensor__", "config": {"shape": [null, 14, 14, 576], "dtype": "float32", "keras_history": ["block_11_depthwise_relu", 0, 0]}}], "kwargs": {}}]}, {"class_name": "BatchNormalization", "config": {"name": "block_11_project_BN", "trainable": false, "dtype": {"class_name": "DTypePolicy", "config": {"name": "float32"}}, "axis": -1, "momentum": 0.999, "epsilon": 0.001, "center": true, "scale": true, "beta_initializer": {"class_name": "Zeros", "config": {}}, "gamma_initializer": {"class_name": "Ones", "config": {}}, "moving_mean_initializer": {"class_name": "Zeros", "config": {}}, "moving_variance_initializer": {"class_name": "Ones", "config": {}}, "beta_regularizer": null, "gamma_regularizer": null, "beta_constraint": null, "gamma_constraint": null, "synchronized": false}, "name": "block_11_project_BN", "inbound_nodes": [{"args": [{"class_name": "__keras_tensor__", "config": {"shape": [null, 14, 14, 96], "dtype": "float32", "keras_history": ["block_11_project", 0, 0]}}], "kwargs": {"mask": null}}]}, {"class_name": "Add", "config": {"name": "block_11_add", "trainable": false, "dtype": {"class_name": "DTypePolicy", "config": {"name": "float32"}}}, "name": "block_11_add", "inbound_nodes": [{"args": [[{"class_name": "__keras_tensor__", "config": {"shape": [null, 14, 14, 96], "dtype": "float32", "keras_history": ["block_10_project_BN", 0, 0]}}, {"class_name": "__keras_tensor__", "config": {"shape": [null, 14, 14, 96], "dtype": "float32", "keras_history": ["block_11_project_BN", 0, 0]}}]], "kwargs": {}}]}, {"class_name": "Conv2D", "config": {"name": "block_12_expand", "trainable": false, "dtype": {"class_name": "DTypePolicy", "config": {"name": "float32"}}, "filters": 576, "kernel_size": [1, 1], "strides": [1, 1], "padding": "same", "data_format": "channels_last", "dilation_rate": [1, 1], "groups": 1, "activation": "linear", "use_bias": false, "kernel_initializer": {"class_name": "GlorotUniform", "config": {"seed": null}}, "bias_initializer": {"class_name": "Zeros", "config": {}}, "kernel_regularizer": null, "bias_regularizer": null, "activity_regularizer": null, "kernel_constraint": null, "bias_constraint": null}, "name": "block_12_expand", "inbound_nodes": [{"args": [{"class_name": "__keras_tensor__", "config": {"shape": [null, 14, 14, 96], "dtype": "float32", "keras_history": ["block_11_add", 0, 0]}}], "kwargs": {}}]}, {"class_name": "BatchNormalization", "config": {"name": "block_12_expand_BN", "trainable": false, "dtype": {"class_name": "DTypePolicy", "config": {"name": "float32"}}, "axis": -1, "momentum": 0.999, "epsilon": 0.001, "center": true, "scale": true, "beta_initializer": {"class_name": "Zeros", "config": {}}, "gamma_initializer": {"class_name": "Ones", "config": {}}, "moving_mean_initializer": {"class_name": "Zeros", "config": {}}, "moving_variance_initializer": {"class_name": "Ones", "config": {}}, "beta_regularizer": null, "gamma_regularizer": null, "beta_constraint": null, "gamma_constraint": null, "synchronized": false}, "name": "block_12_expand_BN", "inbound_nodes": [{"args": [{"class_name": "__keras_tensor__", "config": {"shape": [null, 14, 14, 576], "dtype": "float32", "keras_history": ["block_12_expand", 0, 0]}}], "kwargs": {"mask": null}}]}, {"class_name": "ReLU", "config": {"name": "block_12_expand_relu", "trainable": false, "dtype": {"class_name": "DTypePolicy", "config": {"name": "float32"}}, "max_value": 6.0, "negative_slope": 0.0, "threshold": 0.0}, "name": "block_12_expand_relu", "inbound_nodes": [{"args": [{"class_name": "__keras_tensor__", "config": {"shape": [null, 14, 14, 576], "dtype": "float32", "keras_history": ["block_12_expand_BN", 0, 0]}}], "kwargs": {}}]}, {"class_name": "DepthwiseConv2D", "config": {"name": "block_12_depthwise", "trainable": false, "dtype": {"class_name": "DTypePolicy", "config": {"name": "float32"}}, "depth_multiplier": 1, "kernel_size": [3, 3], "strides": [1, 1], "padding": "same", "data_format": "channels_last", "dilation_rate": [1, 1], "activation": "linear", "use_bias": false, "depthwise_initializer": {"class_name": "GlorotUniform", "config": {"seed": null}}, "bias_initializer": {"class_name": "Zeros", "config": {}}, "depthwise_regularizer": null, "bias_regularizer": null, "activity_regularizer": null, "depthwise_constraint": null, "bias_constraint": null}, "name": "block_12_depthwise", "inbound_nodes": [{"args": [{"class_name": "__keras_tensor__", "config": {"shape": [null, 14, 14, 576], "dtype": "float32", "keras_history": ["block_12_expand_relu", 0, 0]}}], "kwargs": {}}]}, {"class_name": "BatchNormalization", "config": {"name": "block_12_depthwise_BN", "trainable": false, "dtype": {"class_name": "DTypePolicy", "config": {"name": "float32"}}, "axis": -1, "momentum": 0.999, "epsilon": 0.001, "center": true, "scale": true, "beta_initializer": {"class_name": "Zeros", "config": {}}, "gamma_initializer": {"class_name": "Ones", "config": {}}, "moving_mean_initializer": {"class_name": "Zeros", "config": {}}, "moving_variance_initializer": {"class_name": "Ones", "config": {}}, "beta_regularizer": null, "gamma_regularizer": null, "beta_constraint": null, "gamma_constraint": null, "synchronized": false}, "name": "block_12_depthwise_BN", "inbound_nodes": [{"args": [{"class_name": "__keras_tensor__", "config": {"shape": [null, 14, 14, 576], "dtype": "float32", "keras_history": ["block_12_depthwise", 0, 0]}}], "kwargs": {"mask": null}}]}, {"class_name": "ReLU", "config": {"name": "block_12_depthwise_relu", "trainable": false, "dtype": {"class_name": "DTypePolicy", "config": {"name": "float32"}}, "max_value": 6.0, "negative_slope": 0.0, "threshold": 0.0}, "name": "block_12_depthwise_relu", "inbound_nodes": [{"args": [{"class_name": "__keras_tensor__", "config": {"shape": [null, 14, 14, 576], "dtype": "float32", "keras_history": ["block_12_depthwise_BN", 0, 0]}}], "kwargs": {}}]}, {"class_name": "Conv2D", "config": {"name": "block_12_project", "trainable": false, "dtype": {"class_name": "DTypePolicy", "config": {"name": "float32"}}, "filters": 96, "kernel_size": [1, 1], "strides": [1, 1], "padding": "same", "data_format": "channels_last", "dilation_rate": [1, 1], "groups": 1, "activation": "linear", "use_bias": false, "kernel_initializer": {"class_name": "GlorotUniform", "config": {"seed": null}}, "bias_initializer": {"class_name": "Zeros", "config": {}}, "kernel_regularizer": null, "bias_regularizer": null, "activity_regularizer": null, "kernel_constraint": null, "bias_constraint": null}, "name": "block_12_project", "inbound_nodes": [{"args": [{"class_name": "__keras_tensor__", "config": {"shape": [null, 14, 14, 576], "dtype": "float32", "keras_history": ["block_12_depthwise_relu", 0, 0]}}], "kwargs": {}}]}, {"class_name": "BatchNormalization", "config": {"name": "block_12_project_BN", "trainable": false, "dtype": {"class_name": "DTypePolicy", "config": {"name": "float32"}}, "axis": -1, "momentum": 0.999, "epsilon": 0.001, "center": true, "scale": true, "beta_initializer": {"class_name": "Zeros", "config": {}}, "gamma_initializer": {"class_name": "Ones", "config": {}}, "moving_mean_initializer": {"class_name": "Zeros", "config": {}}, "moving_variance_initializer": {"class_name": "Ones", "config": {}}, "beta_regularizer": null, "gamma_regularizer": null, "beta_constraint": null, "gamma_constraint": null, "synchronized": false}, "name": "block_12_project_BN", "inbound_nodes": [{"args": [{"class_name": "__keras_tensor__", "config": {"shape": [null, 14, 14, 96], "dtype": "float32", "keras_history": ["block_12_project", 0, 0]}}], "kwargs": {"mask": null}}]}, {"class_name": "Add", "config": {"name": "block_12_add", "trainable": false, "dtype": {"class_name": "DTypePolicy", "config": {"name": "float32"}}}, "name": "block_12_add", "inbound_nodes": [{"args": [[{"class_name": "__keras_tensor__", "config": {"shape": [null, 14, 14, 96], "dtype": "float32", "keras_history": ["block_11_add", 0, 0]}}, {"class_name": "__keras_tensor__", "config": {"shape": [null, 14, 14, 96], "dtype": "float32", "keras_history": ["block_12_project_BN", 0, 0]}}]], "kwargs": {}}]}, {"class_name": "Conv2D", "config": {"name": "block_13_expand", "trainable": false, "dtype": {"class_name": "DTypePolicy", "config": {"name": "float32"}}, "filters": 576, "kernel_size": [1, 1], "strides": [1, 1], "padding": "same", "data_format": "channels_last", "dilation_rate": [1, 1], "groups": 1, "activation": "linear", "use_bias": false, "kernel_initializer": {"class_name": "GlorotUniform", "config": {"seed": null}}, "bias_initializer": {"class_name": "Zeros", "config": {}}, "kernel_regularizer": null, "bias_regularizer": null, "activity_regularizer": null, "kernel_constraint": null, "bias_constraint": null}, "name": "block_13_expand", "inbound_nodes": [{"args": [{"class_name": "__keras_tensor__", "config": {"shape": [null, 14, 14, 96], "dtype": "float32", "keras_history": ["block_12_add", 0, 0]}}], "kwargs": {}}]}, {"class_name": "BatchNormalization", "config": {"name": "block_13_expand_BN", "trainable": false, "dtype": {"class_name": "DTypePolicy", "config": {"name": "float32"}}, "axis": -1, "momentum": 0.999, "epsilon": 0.001, "center": true, "scale": true, "beta_initializer": {"class_name": "Zeros", "config": {}}, "gamma_initializer": {"class_name": "Ones", "config": {}}, "moving_mean_initializer": {"class_name": "Zeros", "config": {}}, "moving_variance_initializer": {"class_name": "Ones", "config": {}}, "beta_regularizer": null, "gamma_regularizer": null, "beta_constraint": null, "gamma_constraint": null, "synchronized": false}, "name": "block_13_expand_BN", "inbound_nodes": [{"args": [{"class_name": "__keras_tensor__", "config": {"shape": [null, 14, 14, 576], "dtype": "float32", "keras_history": ["block_13_expand", 0, 0]}}], "kwargs": {"mask": null}}]}, {"class_name": "ReLU", "config": {"name": "block_13_expand_relu", "trainable": false, "dtype": {"class_name": "DTypePolicy", "config": {"name": "float32"}}, "max_value": 6.0, "negative_slope": 0.0, "threshold": 0.0}, "name": "block_13_expand_relu", "inbound_nodes": [{"args": [{"class_name": "__keras_tensor__", "config": {"shape": [null, 14, 14, 576], "dtype": "float32", "keras_history": ["block_13_expand_BN", 0, 0]}}], "kwargs": {}}]}, {"class_name": "ZeroPadding2D", "config": {"name": "block_13_pad", "trainable": false, "dtype": {"class_name": "DTypePolicy", "config": {"name": "float32"}}, "padding": [[0, 1], [0, 1]], "data_format": "channels_last"}, "name": "block_13_pad", "inbound_nodes": [{"args": [{"class_name": "__keras_tensor__", "config": {"shape": [null, 14, 14, 576], "dtype": "float32", "keras_history": ["block_13_expand_relu", 0, 0]}}], "kwargs": {}}]}, {"class_name": "DepthwiseConv2D", "config": {"name": "block_13_depthwise", "trainable": false, "dtype": {"class_name": "DTypePolicy", "config": {"name": "float32"}}, "depth_multiplier": 1, "kernel_size": [3, 3], "strides": [2, 2], "padding": "valid", "data_format": "channels_last", "dilation_rate": [1, 1], "activation": "linear", "use_bias": false, "depthwise_initializer": {"class_name": "GlorotUniform", "config": {"seed": null}}, "bias_initializer": {"class_name": "Zeros", "config": {}}, "depthwise_regularizer": null, "bias_regularizer": null, "activity_regularizer": null, "depthwise_constraint": null, "bias_constraint": null}, "name": "block_13_depthwise", "inbound_nodes": [{"args": [{"class_name": "__keras_tensor__", "config": {"shape": [null, 15, 15, 576], "dtype": "float32", "keras_history": ["block_13_pad", 0, 0]}}], "kwargs": {}}]}, {"class_name": "BatchNormalization", "config": {"name": "block_13_depthwise_BN", "trainable": false, "dtype": {"class_name": "DTypePolicy", "config": {"name": "float32"}}, "axis": -1, "momentum": 0.999, "epsilon": 0.001, "center": true, "scale": true, "beta_initializer": {"class_name": "Zeros", "config": {}}, "gamma_initializer": {"class_name": "Ones", "config": {}}, "moving_mean_initializer": {"class_name": "Zeros", "config": {}}, "moving_variance_initializer": {"class_name": "Ones", "config": {}}, "beta_regularizer": null, "gamma_regularizer": null, "beta_constraint": null, "gamma_constraint": null, "synchronized": false}, "name": "block_13_depthwise_BN", "inbound_nodes": [{"args": [{"class_name": "__keras_tensor__", "config": {"shape": [null, 7, 7, 576], "dtype": "float32", "keras_history": ["block_13_depthwise", 0, 0]}}], "kwargs": {"mask": null}}]}, {"class_name": "ReLU", "config": {"name": "block_13_depthwise_relu", "trainable": false, "dtype": {"class_name": "DTypePolicy", "config": {"name": "float32"}}, "max_value": 6.0, "negative_slope": 0.0, "threshold": 0.0}, "name": "block_13_depthwise_relu", "inbound_nodes": [{"args": [{"class_name": "__keras_tensor__", "config": {"shape": [null, 7, 7, 576], "dtype": "float32", "keras_history": ["block_13_depthwise_BN", 0, 0]}}], "kwargs": {}}]}, {"class_name": "Conv2D", "config": {"name": "block_13_project", "trainable": false, "dtype": {"class_name": "DTypePolicy", "config": {"name": "float32"}}, "filters": 160, "kernel_size": [1, 1], "strides": [1, 1], "padding": "same", "data_format": "channels_last", "dilation_rate": [1, 1], "groups": 1, "activation": "linear", "use_bias": false, "kernel_initializer": {"class_name": "GlorotUniform", "config": {"seed": null}}, "bias_initializer": {"class_name": "Zeros", "config": {}}, "kernel_regularizer": null, "bias_regularizer": null, "activity_regularizer": null, "kernel_constraint": null, "bias_constraint": null}, "name": "block_13_project", "inbound_nodes": [{"args": [{"class_name": "__keras_tensor__", "config": {"shape": [null, 7, 7, 576], "dtype": "float32", "keras_history": ["block_13_depthwise_relu", 0, 0]}}], "kwargs": {}}]}, {"class_name": "BatchNormalization", "config": {"name": "block_13_project_BN", "trainable": false, "dtype": {"class_name": "DTypePolicy", "config": {"name": "float32"}}, "axis": -1, "momentum": 0.999, "epsilon": 0.001, "center": true, "scale": true, "beta_initializer": {"class_name": "Zeros", "config": {}}, "gamma_initializer": {"class_name": "Ones", "config": {}}, "moving_mean_initializer": {"class_name": "Zeros", "config": {}}, "moving_variance_initializer": {"class_name": "Ones", "config": {}}, "beta_regularizer": null, "gamma_regularizer": null, "beta_constraint": null, "gamma_constraint": null, "synchronized": false}, "name": "block_13_project_BN", "inbound_nodes": [{"args": [{"class_name": "__keras_tensor__", "config": {"shape": [null, 7, 7, 160], "dtype": "float32", "keras_history": ["block_13_project", 0, 0]}}], "kwargs": {"mask": null}}]}, {"class_name": "Conv2D", "config": {"name": "block_14_expand", "trainable": false, "dtype": {"class_name": "DTypePolicy", "config": {"name": "float32"}}, "filters": 960, "kernel_size": [1, 1], "strides": [1, 1], "padding": "same", "data_format": "channels_last", "dilation_rate": [1, 1], "groups": 1, "activation": "linear", "use_bias": false, "kernel_initializer": {"class_name": "GlorotUniform", "config": {"seed": null}}, "bias_initializer": {"class_name": "Zeros", "config": {}}, "kernel_regularizer": null, "bias_regularizer": null, "activity_regularizer": null, "kernel_constraint": null, "bias_constraint": null}, "name": "block_14_expand", "inbound_nodes": [{"args": [{"class_name": "__keras_tensor__", "config": {"shape": [null, 7, 7, 160], "dtype": "float32", "keras_history": ["block_13_project_BN", 0, 0]}}], "kwargs": {}}]}, {"class_name": "BatchNormalization", "config": {"name": "block_14_expand_BN", "trainable": false, "dtype": {"class_name": "DTypePolicy", "config": {"name": "float32"}}, "axis": -1, "momentum": 0.999, "epsilon": 0.001, "center": true, "scale": true, "beta_initializer": {"class_name": "Zeros", "config": {}}, "gamma_initializer": {"class_name": "Ones", "config": {}}, "moving_mean_initializer": {"class_name": "Zeros", "config": {}}, "moving_variance_initializer": {"class_name": "Ones", "config": {}}, "beta_regularizer": null, "gamma_regularizer": null, "beta_constraint": null, "gamma_constraint": null, "synchronized": false}, "name": "block_14_expand_BN", "inbound_nodes": [{"args": [{"class_name": "__keras_tensor__", "config": {"shape": [null, 7, 7, 960], "dtype": "float32", "keras_history": ["block_14_expand", 0, 0]}}], "kwargs": {"mask": null}}]}, {"class_name": "ReLU", "config": {"name": "block_14_expand_relu", "trainable": false, "dtype": {"class_name": "DTypePolicy", "config": {"name": "float32"}}, "max_value": 6.0, "negative_slope": 0.0, "threshold": 0.0}, "name": "block_14_expand_relu", "inbound_nodes": [{"args": [{"class_name": "__keras_tensor__", "config": {"shape": [null, 7, 7, 960], "dtype": "float32", "keras_history": ["block_14_expand_BN", 0, 0]}}], "kwargs": {}}]}, {"class_name": "DepthwiseConv2D", "config": {"name": "block_14_depthwise", "trainable": false, "dtype": {"class_name": "DTypePolicy", "config": {"name": "float32"}}, "depth_multiplier": 1, "kernel_size": [3, 3], "strides": [1, 1], "padding": "same", "data_format": "channels_last", "dilation_rate": [1, 1], "activation": "linear", "use_bias": false, "depthwise_initializer": {"class_name": "GlorotUniform", "config": {"seed": null}}, "bias_initializer": {"class_name": "Zeros", "config": {}}, "depthwise_regularizer": null, "bias_regularizer": null, "activity_regularizer": null, "depthwise_constraint": null, "bias_constraint": null}, "name": "block_14_depthwise", "inbound_nodes": [{"args": [{"class_name": "__keras_tensor__", "config": {"shape": [null, 7, 7, 960], "dtype": "float32", "keras_history": ["block_14_expand_relu", 0, 0]}}], "kwargs": {}}]}, {"class_name": "BatchNormalization", "config": {"name": "block_14_depthwise_BN", "trainable": false, "dtype": {"class_name": "DTypePolicy", "config": {"name": "float32"}}, "axis": -1, "momentum": 0.999, "epsilon": 0.001, "center": true, "scale": true, "beta_initializer": {"class_name": "Zeros", "config": {}}, "gamma_initializer": {"class_name": "Ones", "config": {}}, "moving_mean_initializer": {"class_name": "Zeros", "config": {}}, "moving_variance_initializer": {"class_name": "Ones", "config": {}}, "beta_regularizer": null, "gamma_regularizer": null, "beta_constraint": null, "gamma_constraint": null, "synchronized": false}, "name": "block_14_depthwise_BN", "inbound_nodes": [{"args": [{"class_name": "__keras_tensor__", "config": {"shape": [null, 7, 7, 960], "dtype": "float32", "keras_history": ["block_14_depthwise", 0, 0]}}], "kwargs": {"mask": null}}]}, {"class_name": "ReLU", "config": {"name": "block_14_depthwise_relu", "trainable": false, "dtype": {"class_name": "DTypePolicy", "config": {"name": "float32"}}, "max_value": 6.0, "negative_slope": 0.0, "threshold": 0.0}, "name": "block_14_depthwise_relu", "inbound_nodes": [{"args": [{"class_name": "__keras_tensor__", "config": {"shape": [null, 7, 7, 960], "dtype": "float32", "keras_history": ["block_14_depthwise_BN", 0, 0]}}], "kwargs": {}}]}, {"class_name": "Conv2D", "config": {"name": "block_14_project", "trainable": false, "dtype": {"class_name": "DTypePolicy", "config": {"name": "float32"}}, "filters": 160, "kernel_size": [1, 1], "strides": [1, 1], "padding": "same", "data_format": "channels_last", "dilation_rate": [1, 1], "groups": 1, "activation": "linear", "use_bias": false, "kernel_initializer": {"class_name": "GlorotUniform", "config": {"seed": null}}, "bias_initializer": {"class_name": "Zeros", "config": {}}, "kernel_regularizer": null, "bias_regularizer": null, "activity_regularizer": null, "kernel_constraint": null, "bias_constraint": null}, "name": "block_14_project", "inbound_nodes": [{"args": [{"class_name": "__keras_tensor__", "config": {"shape": [null, 7, 7, 960], "dtype": "float32", "keras_history": ["block_14_depthwise_relu", 0, 0]}}], "kwargs": {}}]}, {"class_name": "BatchNormalization", "config": {"name": "block_14_project_BN", "trainable": false, "dtype": {"class_name": "DTypePolicy", "config": {"name": "float32"}}, "axis": -1, "momentum": 0.999, "epsilon": 0.001, "center": true, "scale": true, "beta_initializer": {"class_name": "Zeros", "config": {}}, "gamma_initializer": {"class_name": "Ones", "config": {}}, "moving_mean_initializer": {"class_name": "Zeros", "config": {}}, "moving_variance_initializer": {"class_name": "Ones", "config": {}}, "beta_regularizer": null, "gamma_regularizer": null, "beta_constraint": null, "gamma_constraint": null, "synchronized": false}, "name": "block_14_project_BN", "inbound_nodes": [{"args": [{"class_name": "__keras_tensor__", "config": {"shape": [null, 7, 7, 160], "dtype": "float32", "keras_history": ["block_14_project", 0, 0]}}], "kwargs": {"mask": null}}]}, {"class_name": "Add", "config": {"name": "block_14_add", "trainable": false, "dtype": {"class_name": "DTypePolicy", "config": {"name": "float32"}}}, "name": "block_14_add", "inbound_nodes": [{"args": [[{"class_name": "__keras_tensor__", "config": {"shape": [null, 7, 7, 160], "dtype": "float32", "keras_history": ["block_13_project_BN", 0, 0]}}, {"class_name": "__keras_tensor__", "config": {"shape": [null, 7, 7, 160], "dtype": "float32", "keras_history": ["block_14_project_BN", 0, 0]}}]], "kwargs": {}}]}, {"class_name": "Conv2D", "config": {"name": "block_15_expand", "trainable": false, "dtype": {"class_name": "DTypePolicy", "config": {"name": "float32"}}, "filters": 960, "kernel_size": [1, 1], "strides": [1, 1], "padding": "same", "data_format": "channels_last", "dilation_rate": [1, 1], "groups": 1, "activation": "linear", "use_bias": false, "kernel_initializer": {"class_name": "GlorotUniform", "config": {"seed": null}}, "bias_initializer": {"class_name": "Zeros", "config": {}}, "kernel_regularizer": null, "bias_regularizer": null, "activity_regularizer": null, "kernel_constraint": null, "bias_constraint": null}, "name": "block_15_expand", "inbound_nodes": [{"args": [{"class_name": "__keras_tensor__", "config": {"shape": [null, 7, 7, 160], "dtype": "float32", "keras_history": ["block_14_add", 0, 0]}}], "kwargs": {}}]}, {"class_name": "BatchNormalization", "config": {"name": "block_15_expand_BN", "trainable": false, "dtype": {"class_name": "DTypePolicy", "config": {"name": "float32"}}, "axis": -1, "momentum": 0.999, "epsilon": 0.001, "center": true, "scale": true, "beta_initializer": {"class_name": "Zeros", "config": {}}, "gamma_initializer": {"class_name": "Ones", "config": {}}, "moving_mean_initializer": {"class_name": "Zeros", "config": {}}, "moving_variance_initializer": {"class_name": "Ones", "config": {}}, "beta_regularizer": null, "gamma_regularizer": null, "beta_constraint": null, "gamma_constraint": null, "synchronized": false}, "name": "block_15_expand_BN", "inbound_nodes": [{"args": [{"class_name": "__keras_tensor__", "config": {"shape": [null, 7, 7, 960], "dtype": "float32", "keras_history": ["block_15_expand", 0, 0]}}], "kwargs": {"mask": null}}]}, {"class_name": "ReLU", "config": {"name": "block_15_expand_relu", "trainable": false, "dtype": {"class_name": "DTypePolicy", "config": {"name": "float32"}}, "max_value": 6.0, "negative_slope": 0.0, "threshold": 0.0}, "name": "block_15_expand_relu", "inbound_nodes": [{"args": [{"class_name": "__keras_tensor__", "config": {"shape": [null, 7, 7, 960], "dtype": "float32", "keras_history": ["block_15_expand_BN", 0, 0]}}], "kwargs": {}}]}, {"class_name": "DepthwiseConv2D", "config": {"name": "block_15_depthwise", "trainable": false, "dtype": {"class_name": "DTypePolicy", "config": {"name": "float32"}}, "depth_multiplier": 1, "kernel_size": [3, 3], "strides": [1, 1], "padding": "same", "data_format": "channels_last", "dilation_rate": [1, 1], "activation": "linear", "use_bias": false, "depthwise_initializer": {"class_name": "GlorotUniform", "config": {"seed": null}}, "bias_initializer": {"class_name": "Zeros", "config": {}}, "depthwise_regularizer": null, "bias_regularizer": null, "activity_regularizer": null, "depthwise_constraint": null, "bias_constraint": null}, "name": "block_15_depthwise", "inbound_nodes": [{"args": [{"class_name": "__keras_tensor__", "config": {"shape": [null, 7, 7, 960], "dtype": "float32", "keras_history": ["block_15_expand_relu", 0, 0]}}], "kwargs": {}}]}, {"class_name": "BatchNormalization", "config": {"name": "block_15_depthwise_BN", "trainable": false, "dtype": {"class_name": "DTypePolicy", "config": {"name": "float32"}}, "axis": -1, "momentum": 0.999, "epsilon": 0.001, "center": true, "scale": true, "beta_initializer": {"class_name": "Zeros", "config": {}}, "gamma_initializer": {"class_name": "Ones", "config": {}}, "moving_mean_initializer": {"class_name": "Zeros", "config": {}}, "moving_variance_initializer": {"class_name": "Ones", "config": {}}, "beta_regularizer": null, "gamma_regularizer": null, "beta_constraint": null, "gamma_constraint": null, "synchronized": false}, "name": "block_15_depthwise_BN", "inbound_nodes": [{"args": [{"class_name": "__keras_tensor__", "config": {"shape": [null, 7, 7, 960], "dtype": "float32", "keras_history": ["block_15_depthwise", 0, 0]}}], "kwargs": {"mask": null}}]}, {"class_name": "ReLU", "config": {"name": "block_15_depthwise_relu", "trainable": false, "dtype": {"class_name": "DTypePolicy", "config": {"name": "float32"}}, "max_value": 6.0, "negative_slope": 0.0, "threshold": 0.0}, "name": "block_15_depthwise_relu", "inbound_nodes": [{"args": [{"class_name": "__keras_tensor__", "config": {"shape": [null, 7, 7, 960], "dtype": "float32", "keras_history": ["block_15_depthwise_BN", 0, 0]}}], "kwargs": {}}]}, {"class_name": "Conv2D", "config": {"name": "block_15_project", "trainable": false, "dtype": {"class_name": "DTypePolicy", "config": {"name": "float32"}}, "filters": 160, "kernel_size": [1, 1], "strides": [1, 1], "padding": "same", "data_format": "channels_last", "dilation_rate": [1, 1], "groups": 1, "activation": "linear", "use_bias": false, "kernel_initializer": {"class_name": "GlorotUniform", "config": {"seed": null}}, "bias_initializer": {"class_name": "Zeros", "config": {}}, "kernel_regularizer": null, "bias_regularizer": null, "activity_regularizer": null, "kernel_constraint": null, "bias_constraint": null}, "name": "block_15_project", "inbound_nodes": [{"args": [{"class_name": "__keras_tensor__", "config": {"shape": [null, 7, 7, 960], "dtype": "float32", "keras_history": ["block_15_depthwise_relu", 0, 0]}}], "kwargs": {}}]}, {"class_name": "BatchNormalization", "config": {"name": "block_15_project_BN", "trainable": false, "dtype": {"class_name": "DTypePolicy", "config": {"name": "float32"}}, "axis": -1, "momentum": 0.999, "epsilon": 0.001, "center": true, "scale": true, "beta_initializer": {"class_name": "Zeros", "config": {}}, "gamma_initializer": {"class_name": "Ones", "config": {}}, "moving_mean_initializer": {"class_name": "Zeros", "config": {}}, "moving_variance_initializer": {"class_name": "Ones", "config": {}}, "beta_regularizer": null, "gamma_regularizer": null, "beta_constraint": null, "gamma_constraint": null, "synchronized": false}, "name": "block_15_project_BN", "inbound_nodes": [{"args": [{"class_name": "__keras_tensor__", "config": {"shape": [null, 7, 7, 160], "dtype": "float32", "keras_history": ["block_15_project", 0, 0]}}], "kwargs": {"mask": null}}]}, {"class_name": "Add", "config": {"name": "block_15_add", "trainable": false, "dtype": {"class_name": "DTypePolicy", "config": {"name": "float32"}}}, "name": "block_15_add", "inbound_nodes": [{"args": [[{"class_name": "__keras_tensor__", "config": {"shape": [null, 7, 7, 160], "dtype": "float32", "keras_history": ["block_14_add", 0, 0]}}, {"class_name": "__keras_tensor__", "config": {"shape": [null, 7, 7, 160], "dtype": "float32", "keras_history": ["block_15_project_BN", 0, 0]}}]], "kwargs": {}}]}, {"class_name": "Conv2D", "config": {"name": "block_16_expand", "trainable": false, "dtype": {"class_name": "DTypePolicy", "config": {"name": "float32"}}, "filters": 960, "kernel_size": [1, 1], "strides": [1, 1], "padding": "same", "data_format": "channels_last", "dilation_rate": [1, 1], "groups": 1, "activation": "linear", "use_bias": false, "kernel_initializer": {"class_name": "GlorotUniform", "config": {"seed": null}}, "bias_initializer": {"class_name": "Zeros", "config": {}}, "kernel_regularizer": null, "bias_regularizer": null, "activity_regularizer": null, "kernel_constraint": null, "bias_constraint": null}, "name": "block_16_expand", "inbound_nodes": [{"args": [{"class_name": "__keras_tensor__", "config": {"shape": [null, 7, 7, 160], "dtype": "float32", "keras_history": ["block_15_add", 0, 0]}}], "kwargs": {}}]}, {"class_name": "BatchNormalization", "config": {"name": "block_16_expand_BN", "trainable": false, "dtype": {"class_name": "DTypePolicy", "config": {"name": "float32"}}, "axis": -1, "momentum": 0.999, "epsilon": 0.001, "center": true, "scale": true, "beta_initializer": {"class_name": "Zeros", "config": {}}, "gamma_initializer": {"class_name": "Ones", "config": {}}, "moving_mean_initializer": {"class_name": "Zeros", "config": {}}, "moving_variance_initializer": {"class_name": "Ones", "config": {}}, "beta_regularizer": null, "gamma_regularizer": null, "beta_constraint": null, "gamma_constraint": null, "synchronized": false}, "name": "block_16_expand_BN", "inbound_nodes": [{"args": [{"class_name": "__keras_tensor__", "config": {"shape": [null, 7, 7, 960], "dtype": "float32", "keras_history": ["block_16_expand", 0, 0]}}], "kwargs": {"mask": null}}]}, {"class_name": "ReLU", "config": {"name": "block_16_expand_relu", "trainable": false, "dtype": {"class_name": "DTypePolicy", "config": {"name": "float32"}}, "max_value": 6.0, "negative_slope": 0.0, "threshold": 0.0}, "name": "block_16_expand_relu", "inbound_nodes": [{"args": [{"class_name": "__keras_tensor__", "config": {"shape": [null, 7, 7, 960], "dtype": "float32", "keras_history": ["block_16_expand_BN", 0, 0]}}], "kwargs": {}}]}, {"class_name": "DepthwiseConv2D", "config": {"name": "block_16_depthwise", "trainable": false, "dtype": {"class_name": "DTypePolicy", "config": {"name": "float32"}}, "depth_multiplier": 1, "kernel_size": [3, 3], "strides": [1, 1], "padding": "same", "data_format": "channels_last", "dilation_rate": [1, 1], "activation": "linear", "use_bias": false, "depthwise_initializer": {"class_name": "GlorotUniform", "config": {"seed": null}}, "bias_initializer": {"class_name": "Zeros", "config": {}}, "depthwise_regularizer": null, "bias_regularizer": null, "activity_regularizer": null, "depthwise_constraint": null, "bias_constraint": null}, "name": "block_16_depthwise", "inbound_nodes": [{"args": [{"class_name": "__keras_tensor__", "config": {"shape": [null, 7, 7, 960], "dtype": "float32", "keras_history": ["block_16_expand_relu", 0, 0]}}], "kwargs": {}}]}, {"class_name": "BatchNormalization", "config": {"name": "block_16_depthwise_BN", "trainable": false, "dtype": {"class_name": "DTypePolicy", "config": {"name": "float32"}}, "axis": -1, "momentum": 0.999, "epsilon": 0.001, "center": true, "scale": true, "beta_initializer": {"class_name": "Zeros", "config": {}}, "gamma_initializer": {"class_name": "Ones", "config": {}}, "moving_mean_initializer": {"class_name": "Zeros", "config": {}}, "moving_variance_initializer": {"class_name": "Ones", "config": {}}, "beta_regularizer": null, "gamma_regularizer": null, "beta_constraint": null, "gamma_constraint": null, "synchronized": false}, "name": "block_16_depthwise_BN", "inbound_nodes": [{"args": [{"class_name": "__keras_tensor__", "config": {"shape": [null, 7, 7, 960], "dtype": "float32", "keras_history": ["block_16_depthwise", 0, 0]}}], "kwargs": {"mask": null}}]}, {"class_name": "ReLU", "config": {"name": "block_16_depthwise_relu", "trainable": false, "dtype": {"class_name": "DTypePolicy", "config": {"name": "float32"}}, "max_value": 6.0, "negative_slope": 0.0, "threshold": 0.0}, "name": "block_16_depthwise_relu", "inbound_nodes": [{"args": [{"class_name": "__keras_tensor__", "config": {"shape": [null, 7, 7, 960], "dtype": "float32", "keras_history": ["block_16_depthwise_BN", 0, 0]}}], "kwargs": {}}]}, {"class_name": "Conv2D", "config": {"name": "block_16_project", "trainable": false, "dtype": {"class_name": "DTypePolicy", "config": {"name": "float32"}}, "filters": 320, "kernel_size": [1, 1], "strides": [1, 1], "padding": "same", "data_format": "channels_last", "dilation_rate": [1, 1], "groups": 1, "activation": "linear", "use_bias": false, "kernel_initializer": {"class_name": "GlorotUniform", "config": {"seed": null}}, "bias_initializer": {"class_name": "Zeros", "config": {}}, "kernel_regularizer": null, "bias_regularizer": null, "activity_regularizer": null, "kernel_constraint": null, "bias_constraint": null}, "name": "block_16_project", "inbound_nodes": [{"args": [{"class_name": "__keras_tensor__", "config": {"shape": [null, 7, 7, 960], "dtype": "float32", "keras_history": ["block_16_depthwise_relu", 0, 0]}}], "kwargs": {}}]}, {"class_name": "BatchNormalization", "config": {"name": "block_16_project_BN", "trainable": false, "dtype": {"class_name": "DTypePolicy", "config": {"name": "float32"}}, "axis": -1, "momentum": 0.999, "epsilon": 0.001, "center": true, "scale": true, "beta_initializer": {"class_name": "Zeros", "config": {}}, "gamma_initializer": {"class_name": "Ones", "config": {}}, "moving_mean_initializer": {"class_name": "Zeros", "config": {}}, "moving_variance_initializer": {"class_name": "Ones", "config": {}}, "beta_regularizer": null, "gamma_regularizer": null, "beta_constraint": null, "gamma_constraint": null, "synchronized": false}, "name": "block_16_project_BN", "inbound_nodes": [{"args": [{"class_name": "__keras_tensor__", "config": {"shape": [null, 7, 7, 320], "dtype": "float32", "keras_history": ["block_16_project", 0, 0]}}], "kwargs": {"mask": null}}]}, {"class_name": "Conv2D", "config": {"name": "Conv_1", "trainable": false, "dtype": {"class_name": "DTypePolicy", "config": {"name": "float32"}}, "filters": 1280, "kernel_size": [1, 1], "strides": [1, 1], "padding": "valid", "data_format": "channels_last", "dilation_rate": [1, 1], "groups": 1, "activation": "linear", "use_bias": false, "kernel_initializer": {"class_name": "GlorotUniform", "config": {"seed": null}}, "bias_initializer": {"class_name": "Zeros", "config": {}}, "kernel_regularizer": null, "bias_regularizer": null, "activity_regularizer": null, "kernel_constraint": null, "bias_constraint": null}, "name": "Conv_1", "inbound_nodes": [{"args": [{"class_name": "__keras_tensor__", "config": {"shape": [null, 7, 7, 320], "dtype": "float32", "keras_history": ["block_16_project_BN", 0, 0]}}], "kwargs": {}}]}, {"class_name": "BatchNormalization", "config": {"name": "Conv_1_bn", "trainable": false, "dtype": {"class_name": "DTypePolicy", "config": {"name": "float32"}}, "axis": -1, "momentum": 0.999, "epsilon": 0.001, "center": true, "scale": true, "beta_initializer": {"class_name": "Zeros", "config": {}}, "gamma_initializer": {"class_name": "Ones", "config": {}}, "moving_mean_initializer": {"class_name": "Zeros", "config": {}}, "moving_variance_initializer": {"class_name": "Ones", "config": {}}, "beta_regularizer": null, "gamma_regularizer": null, "beta_constraint": null, "gamma_constraint": null, "synchronized": false}, "name": "Conv_1_bn", "inbound_nodes": [{"args": [{"class_name": "__keras_tensor__", "config": {"shape": [null, 7, 7, 1280], "dtype": "float32", "keras_history": ["Conv_1", 0, 0]}}], "kwargs": {"mask": null}}]}, {"class_name": "ReLU", "config": {"name": "out_relu", "trainable": false, "dtype": {"class_name": "DTypePolicy", "config": {"name": "float32"}}, "max_value": 6.0, "negative_slope": 0.0, "threshold": 0.0}, "name": "out_relu", "inbound_nodes": [{"args": [{"class_name": "__keras_tensor__", "config": {"shape": [null, 7, 7, 1280], "dtype": "float32", "keras_history": ["Conv_1_bn", 0, 0]}}], "kwargs": {}}]}, {"class_name": "GlobalAveragePooling2D", "config": {"name": "global_average_pooling2d", "trainable": false, "dtype": {"class_name": "DTypePolicy", "config": {"name": "float32"}}, "data_format": "channels_last", "keepdims": false}, "name": "global_average_pooling2d", "inbound_nodes": [{"args": [{"class_name": "__keras_tensor__", "config": {"shape": [null, 7, 7, 1280], "dtype": "float32", "keras_history": ["out_relu", 0, 0]}}], "kwargs": {}}]}, {"class_name": "BatchNormalization", "config": {"name": "batch_normalization", "trainable": true, "dtype": {"class_name": "DTypePolicy", "config": {"name": "float32"}}, "axis": -1, "momentum": 0.99, "epsilon": 0.001, "center": true, "scale": true, "beta_initializer": {"class_name": "Zeros", "config": {}}, "gamma_initializer": {"class_name": "Ones", "config": {}}, "moving_mean_initializer": {"class_name": "Zeros", "config": {}}, "moving_variance_initializer": {"class_name": "Ones", "config": {}}, "beta_regularizer": null, "gamma_regularizer": null, "beta_constraint": null, "gamma_constraint": null, "synchronized": false}, "name": "batch_normalization", "inbound_nodes": [{"args": [{"class_name": "__keras_tensor__", "config": {"shape": [null, 1280], "dtype": "float32", "keras_history": ["global_average_pooling2d", 0, 0]}}], "kwargs": {"mask": null}}]}, {"class_name": "Dropout", "config": {"name": "dropout", "trainable": true, "dtype": {"class_name": "DTypePolicy", "config": {"name": "float32"}}, "rate": 0.3, "seed": null, "noise_shape": null}, "name": "dropout", "inbound_nodes": [{"args": [{"class_name": "__keras_tensor__", "config": {"shape": [null, 1280], "dtype": "float32", "keras_history": ["batch_normalization", 0, 0]}}], "kwargs": {"training": false}}]}, {"class_name": "Dense", "config": {"name": "dense", "trainable": true, "dtype": {"class_name": "DTypePolicy", "config": {"name": "float32"}}, "units": 9, "activation": "softmax", "use_bias": true, "kernel_initializer": {"class_name": "GlorotUniform", "config": {"seed": null}}, "bias_initializer": {"class_name": "Zeros", "config": {}}, "kernel_regularizer": null, "bias_regularizer": null, "kernel_constraint": null, "bias_constraint": null}, "name": "dense", "inbound_nodes": [{"args": [{"class_name": "__keras_tensor__", "config": {"shape": [null, 1280], "dtype": "float32", "keras_history": ["dropout", 0, 0]}}], "kwargs": {}}]}], "input_layers": ["input_layer_1", 0, 0], "output_layers": ["dense", 0, 0]}, "compile_config": {"optimizer": {"class_name": "Adam", "config": {"name": "adam", "learning_rate": 0.0010000000474974513, "weight_decay": null, "clipnorm": null, "global_clipnorm": null, "clipvalue": null, "use_ema": false, "ema_momentum": 0.99, "ema_overwrite_frequency": null, "loss_scale_factor": null, "gradient_accumulation_steps": null, "beta_1": 0.9, "beta_2": 0.999, "epsilon": 1e-07, "amsgrad": false}}, "loss": {"class_name": "SparseCategoricalCrossentropy", "config": {"name": "sparse_categorical_crossentropy", "reduction": "sum_over_batch_size", "from_logits": false, "ignore_class": null}}, "loss_weights": null, "metrics": ["accuracy"], "weighted_metrics": null, "run_eagerly": false, "steps_per_execution": 1, "jit_compile": false}}, "keras_version": "2.2.4", "backend": "tensorflow"}, "weightsManifest": [{"paths": ["weights.bin"], "weights": [{"name": "Conv1/weight_0", "shape": [3, 3, 3, 32], "dtype": "float32"}, {"name": "bn_Conv1/weight_0", "shape": [32], "dtype": "float32"}, {"name": "bn_Conv1/weight_1", "shape": [32], "dtype": "float32"}, {"name": "bn_Conv1/weight_2", "shape": [32], "dtype": "float32"}, {"name": "bn_Conv1/weight_3", "shape": [32], "dtype": "float32"}, {"name": "expanded_conv_depthwise/weight_0", "shape": [3, 3, 32, 1], "dtype": "float32"}, {"name": "expanded_conv_depthwise_BN/weight_0", "shape": [32], "dtype": "float32"}, {"name": "expanded_conv_depthwise_BN/weight_1", "shape": [32], "dtype": "float32"}, {"name": "expanded_conv_depthwise_BN/weight_2", "shape": [32], "dtype": "float32"}, {"name": "expanded_conv_depthwise_BN/weight_3", "shape": [32], "dtype": "float32"}, {"name": "expanded_conv_project/weight_0", "shape": [1, 1, 32, 16], "dtype": "float32"}, {"name": "expanded_conv_project_BN/weight_0", "shape": [16], "dtype": "float32"}, {"name": "expanded_conv_project_BN/weight_1", "shape": [16], "dtype": "float32"}, {"name": "expanded_conv_project_BN/weight_2", "shape": [16], "dtype": "float32"}, {"name": "expanded_conv_project_BN/weight_3", "shape": [16], "dtype": "float32"}, {"name": "block_1_expand/weight_0", "shape": [1, 1, 16, 96], "dtype": "float32"}, {"name": "block_1_expand_BN/weight_0", "shape": [96], "dtype": "float32"}, {"name": "block_1_expand_BN/weight_1", "shape": [96], "dtype": "float32"}, {"name": "block_1_expand_BN/weight_2", "shape": [96], "dtype": "float32"}, {"name": "block_1_expand_BN/weight_3", "shape": [96], "dtype": "float32"}, {"name": "block_1_depthwise/weight_0", "shape": [3, 3, 96, 1], "dtype": "float32"}, {"name": "block_1_depthwise_BN/weight_0", "shape": [96], "dtype": "float32"}, {"name": "block_1_depthwise_BN/weight_1", "shape": [96], "dtype": "float32"}, {"name": "block_1_depthwise_BN/weight_2", "shape": [96], "dtype": "float32"}, {"name": "block_1_depthwise_BN/weight_3", "shape": [96], "dtype": "float32"}, {"name": "block_1_project/weight_0", "shape": [1, 1, 96, 24], "dtype": "float32"}, {"name": "block_1_project_BN/weight_0", "shape": [24], "dtype": "float32"}, {"name": "block_1_project_BN/weight_1", "shape": [24], "dtype": "float32"}, {"name": "block_1_project_BN/weight_2", "shape": [24], "dtype": "float32"}, {"name": "block_1_project_BN/weight_3", "shape": [24], "dtype": "float32"}, {"name": "block_2_expand/weight_0", "shape": [1, 1, 24, 144], "dtype": "float32"}, {"name": "block_2_expand_BN/weight_0", "shape": [144], "dtype": "float32"}, {"name": "block_2_expand_BN/weight_1", "shape": [144], "dtype": "float32"}, {"name": "block_2_expand_BN/weight_2", "shape": [144], "dtype": "float32"}, {"name": "block_2_expand_BN/weight_3", "shape": [144], "dtype": "float32"}, {"name": "block_2_depthwise/weight_0", "shape": [3, 3, 144, 1], "dtype": "float32"}, {"name": "block_2_depthwise_BN/weight_0", "shape": [144], "dtype": "float32"}, {"name": "block_2_depthwise_BN/weight_1", "shape": [144], "dtype": "float32"}, {"name": "block_2_depthwise_BN/weight_2", "shape": [144], "dtype": "float32"}, {"name": "block_2_depthwise_BN/weight_3", "shape": [144], "dtype": "float32"}, {"name": "block_2_project/weight_0", "shape": [1, 1, 144, 24], "dtype": "float32"}, {"name": "block_2_project_BN/weight_0", "shape": [24], "dtype": "float32"}, {"name": "block_2_project_BN/weight_1", "shape": [24], "dtype": "float32"}, {"name": "block_2_project_BN/weight_2", "shape": [24], "dtype": "float32"}, {"name": "block_2_project_BN/weight_3", "shape": [24], "dtype": "float32"}, {"name": "block_3_expand/weight_0", "shape": [1, 1, 24, 144], "dtype": "float32"}, {"name": "block_3_expand_BN/weight_0", "shape": [144], "dtype": "float32"}, {"name": "block_3_expand_BN/weight_1", "shape": [144], "dtype": "float32"}, {"name": "block_3_expand_BN/weight_2", "shape": [144], "dtype": "float32"}, {"name": "block_3_expand_BN/weight_3", "shape": [144], "dtype": "float32"}, {"name": "block_3_depthwise/weight_0", "shape": [3, 3, 144, 1], "dtype": "float32"}, {"name": "block_3_depthwise_BN/weight_0", "shape": [144], "dtype": "float32"}, {"name": "block_3_depthwise_BN/weight_1", "shape": [144], "dtype": "float32"}, {"name": "block_3_depthwise_BN/weight_2", "shape": [144], "dtype": "float32"}, {"name": "block_3_depthwise_BN/weight_3", "shape": [144], "dtype": "float32"}, {"name": "block_3_project/weight_0", "shape": [1, 1, 144, 32], "dtype": "float32"}, {"name": "block_3_project_BN/weight_0", "shape": [32], "dtype": "float32"}, {"name": "block_3_project_BN/weight_1", "shape": [32], "dtype": "float32"}, {"name": "block_3_project_BN/weight_2", "shape": [32], "dtype": "float32"}, {"name": "block_3_project_BN/weight_3", "shape": [32], "dtype": "float32"}, {"name": "block_4_expand/weight_0", "shape": [1, 1, 32, 192], "dtype": "float32"}, {"name": "block_4_expand_BN/weight_0", "shape": [192], "dtype": "float32"}, {"name": "block_4_expand_BN/weight_1", "shape": [192], "dtype": "float32"}, {"name": "block_4_expand_BN/weight_2", "shape": [192], "dtype": "float32"}, {"name": "block_4_expand_BN/weight_3", "shape": [192], "dtype": "float32"}, {"name": "block_4_depthwise/weight_0", "shape": [3, 3, 192, 1], "dtype": "float32"}, {"name": "block_4_depthwise_BN/weight_0", "shape": [192], "dtype": "float32"}, {"name": "block_4_depthwise_BN/weight_1", "shape": [192], "dtype": "float32"}, {"name": "block_4_depthwise_BN/weight_2", "shape": [192], "dtype": "float32"}, {"name": "block_4_depthwise_BN/weight_3", "shape": [192], "dtype": "float32"}, {"name": "block_4_project/weight_0", "shape": [1, 1, 192, 32], "dtype": "float32"}, {"name": "block_4_project_BN/weight_0", "shape": [32], "dtype": "float32"}, {"name": "block_4_project_BN/weight_1", "shape": [32], "dtype": "float32"}, {"name": "block_4_project_BN/weight_2", "shape": [32], "dtype": "float32"}, {"name": "block_4_project_BN/weight_3", "shape": [32], "dtype": "float32"}, {"name": "block_5_expand/weight_0", "shape": [1, 1, 32, 192], "dtype": "float32"}, {"name": "block_5_expand_BN/weight_0", "shape": [192], "dtype": "float32"}, {"name": "block_5_expand_BN/weight_1", "shape": [192], "dtype": "float32"}, {"name": "block_5_expand_BN/weight_2", "shape": [192], "dtype": "float32"}, {"name": "block_5_expand_BN/weight_3", "shape": [192], "dtype": "float32"}, {"name": "block_5_depthwise/weight_0", "shape": [3, 3, 192, 1], "dtype": "float32"}, {"name": "block_5_depthwise_BN/weight_0", "shape": [192], "dtype": "float32"}, {"name": "block_5_depthwise_BN/weight_1", "shape": [192], "dtype": "float32"}, {"name": "block_5_depthwise_BN/weight_2", "shape": [192], "dtype": "float32"}, {"name": "block_5_depthwise_BN/weight_3", "shape": [192], "dtype": "float32"}, {"name": "block_5_project/weight_0", "shape": [1, 1, 192, 32], "dtype": "float32"}, {"name": "block_5_project_BN/weight_0", "shape": [32], "dtype": "float32"}, {"name": "block_5_project_BN/weight_1", "shape": [32], "dtype": "float32"}, {"name": "block_5_project_BN/weight_2", "shape": [32], "dtype": "float32"}, {"name": "block_5_project_BN/weight_3", "shape": [32], "dtype": "float32"}, {"name": "block_6_expand/weight_0", "shape": [1, 1, 32, 192], "dtype": "float32"}, {"name": "block_6_expand_BN/weight_0", "shape": [192], "dtype": "float32"}, {"name": "block_6_expand_BN/weight_1", "shape": [192], "dtype": "float32"}, {"name": "block_6_expand_BN/weight_2", "shape": [192], "dtype": "float32"}, {"name": "block_6_expand_BN/weight_3", "shape": [192], "dtype": "float32"}, {"name": "block_6_depthwise/weight_0", "shape": [3, 3, 192, 1], "dtype": "float32"}, {"name": "block_6_depthwise_BN/weight_0", "shape": [192], "dtype": "float32"}, {"name": "block_6_depthwise_BN/weight_1", "shape": [192], "dtype": "float32"}, {"name": "block_6_depthwise_BN/weight_2", "shape": [192], "dtype": "float32"}, {"name": "block_6_depthwise_BN/weight_3", "shape": [192], "dtype": "float32"}, {"name": "block_6_project/weight_0", "shape": [1, 1, 192, 64], "dtype": "float32"}, {"name": "block_6_project_BN/weight_0", "shape": [64], "dtype": "float32"}, {"name": "block_6_project_BN/weight_1", "shape": [64], "dtype": "float32"}, {"name": "block_6_project_BN/weight_2", "shape": [64], "dtype": "float32"}, {"name": "block_6_project_BN/weight_3", "shape": [64], "dtype": "float32"}, {"name": "block_7_expand/weight_0", "shape": [1, 1, 64, 384], "dtype": "float32"}, {"name": "block_7_expand_BN/weight_0", "shape": [384], "dtype": "float32"}, {"name": "block_7_expand_BN/weight_1", "shape": [384], "dtype": "float32"}, {"name": "block_7_expand_BN/weight_2", "shape": [384], "dtype": "float32"}, {"name": "block_7_expand_BN/weight_3", "shape": [384], "dtype": "float32"}, {"name": "block_7_depthwise/weight_0", "shape": [3, 3, 384, 1], "dtype": "float32"}, {"name": "block_7_depthwise_BN/weight_0", "shape": [384], "dtype": "float32"}, {"name": "block_7_depthwise_BN/weight_1", "shape": [384], "dtype": "float32"}, {"name": "block_7_depthwise_BN/weight_2", "shape": [384], "dtype": "float32"}, {"name": "block_7_depthwise_BN/weight_3", "shape": [384], "dtype": "float32"}, {"name": "block_7_project/weight_0", "shape": [1, 1, 384, 64], "dtype": "float32"}, {"name": "block_7_project_BN/weight_0", "shape": [64], "dtype": "float32"}, {"name": "block_7_project_BN/weight_1", "shape": [64], "dtype": "float32"}, {"name": "block_7_project_BN/weight_2", "shape": [64], "dtype": "float32"}, {"name": "block_7_project_BN/weight_3", "shape": [64], "dtype": "float32"}, {"name": "block_8_expand/weight_0", "shape": [1, 1, 64, 384], "dtype": "float32"}, {"name": "block_8_expand_BN/weight_0", "shape": [384], "dtype": "float32"}, {"name": "block_8_expand_BN/weight_1", "shape": [384], "dtype": "float32"}, {"name": "block_8_expand_BN/weight_2", "shape": [384], "dtype": "float32"}, {"name": "block_8_expand_BN/weight_3", "shape": [384], "dtype": "float32"}, {"name": "block_8_depthwise/weight_0", "shape": [3, 3, 384, 1], "dtype": "float32"}, {"name": "block_8_depthwise_BN/weight_0", "shape": [384], "dtype": "float32"}, {"name": "block_8_depthwise_BN/weight_1", "shape": [384], "dtype": "float32"}, {"name": "block_8_depthwise_BN/weight_2", "shape": [384], "dtype": "float32"}, {"name": "block_8_depthwise_BN/weight_3", "shape": [384], "dtype": "float32"}, {"name": "block_8_project/weight_0", "shape": [1, 1, 384, 64], "dtype": "float32"}, {"name": "block_8_project_BN/weight_0", "shape": [64], "dtype": "float32"}, {"name": "block_8_project_BN/weight_1", "shape": [64], "dtype": "float32"}, {"name": "block_8_project_BN/weight_2", "shape": [64], "dtype": "float32"}, {"name": "block_8_project_BN/weight_3", "shape": [64], "dtype": "float32"}, {"name": "block_9_expand/weight_0", "shape": [1, 1, 64, 384], "dtype": "float32"}, {"name": "block_9_expand_BN/weight_0", "shape": [384], "dtype": "float32"}, {"name": "block_9_expand_BN/weight_1", "shape": [384], "dtype": "float32"}, {"name": "block_9_expand_BN/weight_2", "shape": [384], "dtype": "float32"}, {"name": "block_9_expand_BN/weight_3", "shape": [384], "dtype": "float32"}, {"name": "block_9_depthwise/weight_0", "shape": [3, 3, 384, 1], "dtype": "float32"}, {"name": "block_9_depthwise_BN/weight_0", "shape": [384], "dtype": "float32"}, {"name": "block_9_depthwise_BN/weight_1", "shape": [384], "dtype": "float32"}, {"name": "block_9_depthwise_BN/weight_2", "shape": [384], "dtype": "float32"}, {"name": "block_9_depthwise_BN/weight_3", "shape": [384], "dtype": "float32"}, {"name": "block_9_project/weight_0", "shape": [1, 1, 384, 64], "dtype": "float32"}, {"name": "block_9_project_BN/weight_0", "shape": [64], "dtype": "float32"}, {"name": "block_9_project_BN/weight_1", "shape": [64], "dtype": "float32"}, {"name": "block_9_project_BN/weight_2", "shape": [64], "dtype": "float32"}, {"name": "block_9_project_BN/weight_3", "shape": [64], "dtype": "float32"}, {"name": "block_10_expand/weight_0", "shape": [1, 1, 64, 384], "dtype": "float32"}, {"name": "block_10_expand_BN/weight_0", "shape": [384], "dtype": "float32"}, {"name": "block_10_expand_BN/weight_1", "shape": [384], "dtype": "float32"}, {"name": "block_10_expand_BN/weight_2", "shape": [384], "dtype": "float32"}, {"name": "block_10_expand_BN/weight_3", "shape": [384], "dtype": "float32"}, {"name": "block_10_depthwise/weight_0", "shape": [3, 3, 384, 1], "dtype": "float32"}, {"name": "block_10_depthwise_BN/weight_0", "shape": [384], "dtype": "float32"}, {"name": "block_10_depthwise_BN/weight_1", "shape": [384], "dtype": "float32"}, {"name": "block_10_depthwise_BN/weight_2", "shape": [384], "dtype": "float32"}, {"name": "block_10_depthwise_BN/weight_3", "shape": [384], "dtype": "float32"}, {"name": "block_10_project/weight_0", "shape": [1, 1, 384, 96], "dtype": "float32"}, {"name": "block_10_project_BN/weight_0", "shape": [96], "dtype": "float32"}, {"name": "block_10_project_BN/weight_1", "shape": [96], "dtype": "float32"}, {"name": "block_10_project_BN/weight_2", "shape": [96], "dtype": "float32"}, {"name": "block_10_project_BN/weight_3", "shape": [96], "dtype": "float32"}, {"name": "block_11_expand/weight_0", "shape": [1, 1, 96, 576], "dtype": "float32"}, {"name": "block_11_expand_BN/weight_0", "shape": [576], "dtype": "float32"}, {"name": "block_11_expand_BN/weight_1", "shape": [576], "dtype": "float32"}, {"name": "block_11_expand_BN/weight_2", "shape": [576], "dtype": "float32"}, {"name": "block_11_expand_BN/weight_3", "shape": [576], "dtype": "float32"}, {"name": "block_11_depthwise/weight_0", "shape": [3, 3, 576, 1], "dtype": "float32"}, {"name": "block_11_depthwise_BN/weight_0", "shape": [576], "dtype": "float32"}, {"name": "block_11_depthwise_BN/weight_1", "shape": [576], "dtype": "float32"}, {"name": "block_11_depthwise_BN/weight_2", "shape": [576], "dtype": "float32"}, {"name": "block_11_depthwise_BN/weight_3", "shape": [576], "dtype": "float32"}, {"name": "block_11_project/weight_0", "shape": [1, 1, 576, 96], "dtype": "float32"}, {"name": "block_11_project_BN/weight_0", "shape": [96], "dtype": "float32"}, {"name": "block_11_project_BN/weight_1", "shape": [96], "dtype": "float32"}, {"name": "block_11_project_BN/weight_2", "shape": [96], "dtype": "float32"}, {"name": "block_11_project_BN/weight_3", "shape": [96], "dtype": "float32"}, {"name": "block_12_expand/weight_0", "shape": [1, 1, 96, 576], "dtype": "float32"}, {"name": "block_12_expand_BN/weight_0", "shape": [576], "dtype": "float32"}, {"name": "block_12_expand_BN/weight_1", "shape": [576], "dtype": "float32"}, {"name": "block_12_expand_BN/weight_2", "shape": [576], "dtype": "float32"}, {"name": "block_12_expand_BN/weight_3", "shape": [576], "dtype": "float32"}, {"name": "block_12_depthwise/weight_0", "shape": [3, 3, 576, 1], "dtype": "float32"}, {"name": "block_12_depthwise_BN/weight_0", "shape": [576], "dtype": "float32"}, {"name": "block_12_depthwise_BN/weight_1", "shape": [576], "dtype": "float32"}, {"name": "block_12_depthwise_BN/weight_2", "shape": [576], "dtype": "float32"}, {"name": "block_12_depthwise_BN/weight_3", "shape": [576], "dtype": "float32"}, {"name": "block_12_project/weight_0", "shape": [1, 1, 576, 96], "dtype": "float32"}, {"name": "block_12_project_BN/weight_0", "shape": [96], "dtype": "float32"}, {"name": "block_12_project_BN/weight_1", "shape": [96], "dtype": "float32"}, {"name": "block_12_project_BN/weight_2", "shape": [96], "dtype": "float32"}, {"name": "block_12_project_BN/weight_3", "shape": [96], "dtype": "float32"}, {"name": "block_13_expand/weight_0", "shape": [1, 1, 96, 576], "dtype": "float32"}, {"name": "block_13_expand_BN/weight_0", "shape": [576], "dtype": "float32"}, {"name": "block_13_expand_BN/weight_1", "shape": [576], "dtype": "float32"}, {"name": "block_13_expand_BN/weight_2", "shape": [576], "dtype": "float32"}, {"name": "block_13_expand_BN/weight_3", "shape": [576], "dtype": "float32"}, {"name": "block_13_depthwise/weight_0", "shape": [3, 3, 576, 1], "dtype": "float32"}, {"name": "block_13_depthwise_BN/weight_0", "shape": [576], "dtype": "float32"}, {"name": "block_13_depthwise_BN/weight_1", "shape": [576], "dtype": "float32"}, {"name": "block_13_depthwise_BN/weight_2", "shape": [576], "dtype": "float32"}, {"name": "block_13_depthwise_BN/weight_3", "shape": [576], "dtype": "float32"}, {"name": "block_13_project/weight_0", "shape": [1, 1, 576, 160], "dtype": "float32"}, {"name": "block_13_project_BN/weight_0", "shape": [160], "dtype": "float32"}, {"name": "block_13_project_BN/weight_1", "shape": [160], "dtype": "float32"}, {"name": "block_13_project_BN/weight_2", "shape": [160], "dtype": "float32"}, {"name": "block_13_project_BN/weight_3", "shape": [160], "dtype": "float32"}, {"name": "block_14_expand/weight_0", "shape": [1, 1, 160, 960], "dtype": "float32"}, {"name": "block_14_expand_BN/weight_0", "shape": [960], "dtype": "float32"}, {"name": "block_14_expand_BN/weight_1", "shape": [960], "dtype": "float32"}, {"name": "block_14_expand_BN/weight_2", "shape": [960], "dtype": "float32"}, {"name": "block_14_expand_BN/weight_3", "shape": [960], "dtype": "float32"}, {"name": "block_14_depthwise/weight_0", "shape": [3, 3, 960, 1], "dtype": "float32"}, {"name": "block_14_depthwise_BN/weight_0", "shape": [960], "dtype": "float32"}, {"name": "block_14_depthwise_BN/weight_1", "shape": [960], "dtype": "float32"}, {"name": "block_14_depthwise_BN/weight_2", "shape": [960], "dtype": "float32"}, {"name": "block_14_depthwise_BN/weight_3", "shape": [960], "dtype": "float32"}, {"name": "block_14_project/weight_0", "shape": [1, 1, 960, 160], "dtype": "float32"}, {"name": "block_14_project_BN/weight_0", "shape": [160], "dtype": "float32"}, {"name": "block_14_project_BN/weight_1", "shape": [160], "dtype": "float32"}, {"name": "block_14_project_BN/weight_2", "shape": [160], "dtype": "float32"}, {"name": "block_14_project_BN/weight_3", "shape": [160], "dtype": "float32"}, {"name": "block_15_expand/weight_0", "shape": [1, 1, 160, 960], "dtype": "float32"}, {"name": "block_15_expand_BN/weight_0", "shape": [960], "dtype": "float32"}, {"name": "block_15_expand_BN/weight_1", "shape": [960], "dtype": "float32"}, {"name": "block_15_expand_BN/weight_2", "shape": [960], "dtype": "float32"}, {"name": "block_15_expand_BN/weight_3", "shape": [960], "dtype": "float32"}, {"name": "block_15_depthwise/weight_0", "shape": [3, 3, 960, 1], "dtype": "float32"}, {"name": "block_15_depthwise_BN/weight_0", "shape": [960], "dtype": "float32"}, {"name": "block_15_depthwise_BN/weight_1", "shape": [960], "dtype": "float32"}, {"name": "block_15_depthwise_BN/weight_2", "shape": [960], "dtype": "float32"}, {"name": "block_15_depthwise_BN/weight_3", "shape": [960], "dtype": "float32"}, {"name": "block_15_project/weight_0", "shape": [1, 1, 960, 160], "dtype": "float32"}, {"name": "block_15_project_BN/weight_0", "shape": [160], "dtype": "float32"}, {"name": "block_15_project_BN/weight_1", "shape": [160], "dtype": "float32"}, {"name": "block_15_project_BN/weight_2", "shape": [160], "dtype": "float32"}, {"name": "block_15_project_BN/weight_3", "shape": [160], "dtype": "float32"}, {"name": "block_16_expand/weight_0", "shape": [1, 1, 160, 960], "dtype": "float32"}, {"name": "block_16_expand_BN/weight_0", "shape": [960], "dtype": "float32"}, {"name": "block_16_expand_BN/weight_1", "shape": [960], "dtype": "float32"}, {"name": "block_16_expand_BN/weight_2", "shape": [960], "dtype": "float32"}, {"name": "block_16_expand_BN/weight_3", "shape": [960], "dtype": "float32"}, {"name": "block_16_depthwise/weight_0", "shape": [3, 3, 960, 1], "dtype": "float32"}, {"name": "block_16_depthwise_BN/weight_0", "shape": [960], "dtype": "float32"}, {"name": "block_16_depthwise_BN/weight_1", "shape": [960], "dtype": "float32"}, {"name": "block_16_depthwise_BN/weight_2", "shape": [960], "dtype": "float32"}, {"name": "block_16_depthwise_BN/weight_3", "shape": [960], "dtype": "float32"}, {"name": "block_16_project/weight_0", "shape": [1, 1, 960, 320], "dtype": "float32"}, {"name": "block_16_project_BN/weight_0", "shape": [320], "dtype": "float32"}, {"name": "block_16_project_BN/weight_1", "shape": [320], "dtype": "float32"}, {"name": "block_16_project_BN/weight_2", "shape": [320], "dtype": "float32"}, {"name": "block_16_project_BN/weight_3", "shape": [320], "dtype": "float32"}, {"name": "Conv_1/weight_0", "shape": [1, 1, 320, 1280], "dtype": "float32"}, {"name": "Conv_1_bn/weight_0", "shape": [1280], "dtype": "float32"}, {"name": "Conv_1_bn/weight_1", "shape": [1280], "dtype": "float32"}, {"name": "Conv_1_bn/weight_2", "shape": [1280], "dtype": "float32"}, {"name": "Conv_1_bn/weight_3", "shape": [1280], "dtype": "float32"}, {"name": "batch_normalization/weight_0", "shape": [1280], "dtype": "float32"}, {"name": "batch_normalization/weight_1", "shape": [1280], "dtype": "float32"}, {"name": "batch_normalization/weight_2", "shape": [1280], "dtype": "float32"}, {"name": "batch_normalization/weight_3", "shape": [1280], "dtype": "float32"}, {"name": "dense/weight_0", "shape": [1280, 9], "dtype": "float32"}, {"name": "dense/weight_1", "shape": [9], "dtype": "float32"}]}]}